{"modelTopology": {"keras_version": "2.2.2", "backend": "tensorflow", "model_config": {"class_name": "Model", "config": {"name": "model_1", "layers": [{"name": "LR", "class_name": "InputLayer", "config": {"batch_input_shape": [null, null, null, 3], "dtype": "float32", "sparse": false, "name": "LR"}, "inbound_nodes": []}, {"name": "F_m1", "class_name": "Conv2D", "config": {"name": "F_m1", "trainable": true, "filters": 64, "kernel_size": [3, 3], "strides": [1, 1], "padding": "same", "data_format": "channels_last", "dilation_rate": [1, 1], "activation": "linear", "use_bias": true, "kernel_initializer": {"class_name": "VarianceScaling", "config": {"scale": 1.0, "mode": "fan_avg", "distribution": "uniform", "seed": null}}, "bias_initializer": {"class_name": "Zeros", "config": {}}, "kernel_regularizer": null, "bias_regularizer": null, "activity_regularizer": null, "kernel_constraint": null, "bias_constraint": null}, "inbound_nodes": [[["LR", 0, 0, {}]]]}, {"name": "F_0", "class_name": "Conv2D", "config": {"name": "F_0", "trainable": true, "filters": 64, "kernel_size": [3, 3], "strides": [1, 1], "padding": "same", "data_format": "channels_last", "dilation_rate": [1, 1], "activation": "linear", "use_bias": true, "kernel_initializer": {"class_name": "VarianceScaling", "config": {"scale": 1.0, "mode": "fan_avg", "distribution": "uniform", "seed": null}}, "bias_initializer": {"class_name": "Zeros", "config": {}}, "kernel_regularizer": null, "bias_regularizer": null, "activity_regularizer": null, "kernel_constraint": null, "bias_constraint": null}, "inbound_nodes": [[["F_m1", 0, 0, {}]]]}, {"name": "F_1_1", "class_name": "Conv2D", "config": {"name": "F_1_1", "trainable": true, "filters": 64, "kernel_size": [3, 3], "strides": [1, 1], "padding": "same", "data_format": "channels_last", "dilation_rate": [1, 1], "activation": "linear", "use_bias": true, "kernel_initializer": {"class_name": "VarianceScaling", "config": {"scale": 1.0, "mode": "fan_avg", "distribution": "uniform", "seed": null}}, "bias_initializer": {"class_name": "Zeros", "config": {}}, "kernel_regularizer": null, "bias_regularizer": null, "activity_regularizer": null, "kernel_constraint": null, "bias_constraint": null}, "inbound_nodes": [[["F_0", 0, 0, {}]]]}, {"name": "F_1_1_Relu", "class_name": "Activation", "config": {"name": "F_1_1_Relu", "trainable": true, "activation": "relu"}, "inbound_nodes": [[["F_1_1", 0, 0, {}]]]}, {"name": "RDB_Concat_1_1", "class_name": "Concatenate", "config": {"name": "RDB_Concat_1_1", "trainable": true, "axis": 3}, "inbound_nodes": [[["F_0", 0, 0, {}], ["F_1_1_Relu", 0, 0, {}]]]}, {"name": "F_1_2", "class_name": "Conv2D", "config": {"name": "F_1_2", "trainable": true, "filters": 64, "kernel_size": [3, 3], "strides": [1, 1], "padding": "same", "data_format": "channels_last", "dilation_rate": [1, 1], "activation": "linear", "use_bias": true, "kernel_initializer": {"class_name": "VarianceScaling", "config": {"scale": 1.0, "mode": "fan_avg", "distribution": "uniform", "seed": null}}, "bias_initializer": {"class_name": "Zeros", "config": {}}, "kernel_regularizer": null, "bias_regularizer": null, "activity_regularizer": null, "kernel_constraint": null, "bias_constraint": null}, "inbound_nodes": [[["RDB_Concat_1_1", 0, 0, {}]]]}, {"name": "F_1_2_Relu", "class_name": "Activation", "config": {"name": "F_1_2_Relu", "trainable": true, "activation": "relu"}, "inbound_nodes": [[["F_1_2", 0, 0, {}]]]}, {"name": "RDB_Concat_1_2", "class_name": "Concatenate", "config": {"name": "RDB_Concat_1_2", "trainable": true, "axis": 3}, "inbound_nodes": [[["RDB_Concat_1_1", 0, 0, {}], ["F_1_2_Relu", 0, 0, {}]]]}, {"name": "F_1_3", "class_name": "Conv2D", "config": {"name": "F_1_3", "trainable": true, "filters": 64, "kernel_size": [3, 3], "strides": [1, 1], "padding": "same", "data_format": "channels_last", "dilation_rate": [1, 1], "activation": "linear", "use_bias": true, "kernel_initializer": {"class_name": "VarianceScaling", "config": {"scale": 1.0, "mode": "fan_avg", "distribution": "uniform", "seed": null}}, "bias_initializer": {"class_name": "Zeros", "config": {}}, "kernel_regularizer": null, "bias_regularizer": null, "activity_regularizer": null, "kernel_constraint": null, "bias_constraint": null}, "inbound_nodes": [[["RDB_Concat_1_2", 0, 0, {}]]]}, {"name": "F_1_3_Relu", "class_name": "Activation", "config": {"name": "F_1_3_Relu", "trainable": true, "activation": "relu"}, "inbound_nodes": [[["F_1_3", 0, 0, {}]]]}, {"name": "RDB_Concat_1_3", "class_name": "Concatenate", "config": {"name": "RDB_Concat_1_3", "trainable": true, "axis": 3}, "inbound_nodes": [[["RDB_Concat_1_2", 0, 0, {}], ["F_1_3_Relu", 0, 0, {}]]]}, {"name": "F_1_4", "class_name": "Conv2D", "config": {"name": "F_1_4", "trainable": true, "filters": 64, "kernel_size": [3, 3], "strides": [1, 1], "padding": "same", "data_format": "channels_last", "dilation_rate": [1, 1], "activation": "linear", "use_bias": true, "kernel_initializer": {"class_name": "VarianceScaling", "config": {"scale": 1.0, "mode": "fan_avg", "distribution": "uniform", "seed": null}}, "bias_initializer": {"class_name": "Zeros", "config": {}}, "kernel_regularizer": null, "bias_regularizer": null, "activity_regularizer": null, "kernel_constraint": null, "bias_constraint": null}, "inbound_nodes": [[["RDB_Concat_1_3", 0, 0, {}]]]}, {"name": "F_1_4_Relu", "class_name": "Activation", "config": {"name": "F_1_4_Relu", "trainable": true, "activation": "relu"}, "inbound_nodes": [[["F_1_4", 0, 0, {}]]]}, {"name": "RDB_Concat_1_4", "class_name": "Concatenate", "config": {"name": "RDB_Concat_1_4", "trainable": true, "axis": 3}, "inbound_nodes": [[["RDB_Concat_1_3", 0, 0, {}], ["F_1_4_Relu", 0, 0, {}]]]}, {"name": "F_1_5", "class_name": "Conv2D", "config": {"name": "F_1_5", "trainable": true, "filters": 64, "kernel_size": [3, 3], "strides": [1, 1], "padding": "same", "data_format": "channels_last", "dilation_rate": [1, 1], "activation": "linear", "use_bias": true, "kernel_initializer": {"class_name": "VarianceScaling", "config": {"scale": 1.0, "mode": "fan_avg", "distribution": "uniform", "seed": null}}, "bias_initializer": {"class_name": "Zeros", "config": {}}, "kernel_regularizer": null, "bias_regularizer": null, "activity_regularizer": null, "kernel_constraint": null, "bias_constraint": null}, "inbound_nodes": [[["RDB_Concat_1_4", 0, 0, {}]]]}, {"name": "F_1_5_Relu", "class_name": "Activation", "config": {"name": "F_1_5_Relu", "trainable": true, "activation": "relu"}, "inbound_nodes": [[["F_1_5", 0, 0, {}]]]}, {"name": "RDB_Concat_1_5", "class_name": "Concatenate", "config": {"name": "RDB_Concat_1_5", "trainable": true, "axis": 3}, "inbound_nodes": [[["RDB_Concat_1_4", 0, 0, {}], ["F_1_5_Relu", 0, 0, {}]]]}, {"name": "F_1_6", "class_name": "Conv2D", "config": {"name": "F_1_6", "trainable": true, "filters": 64, "kernel_size": [3, 3], "strides": [1, 1], "padding": "same", "data_format": "channels_last", "dilation_rate": [1, 1], "activation": "linear", "use_bias": true, "kernel_initializer": {"class_name": "VarianceScaling", "config": {"scale": 1.0, "mode": "fan_avg", "distribution": "uniform", "seed": null}}, "bias_initializer": {"class_name": "Zeros", "config": {}}, "kernel_regularizer": null, "bias_regularizer": null, "activity_regularizer": null, "kernel_constraint": null, "bias_constraint": null}, "inbound_nodes": [[["RDB_Concat_1_5", 0, 0, {}]]]}, {"name": "F_1_6_Relu", "class_name": "Activation", "config": {"name": "F_1_6_Relu", "trainable": true, "activation": "relu"}, "inbound_nodes": [[["F_1_6", 0, 0, {}]]]}, {"name": "RDB_Concat_1_6", "class_name": "Concatenate", "config": {"name": "RDB_Concat_1_6", "trainable": true, "axis": 3}, "inbound_nodes": [[["RDB_Concat_1_5", 0, 0, {}], ["F_1_6_Relu", 0, 0, {}]]]}, {"name": "LFF_1", "class_name": "Conv2D", "config": {"name": "LFF_1", "trainable": true, "filters": 64, "kernel_size": [1, 1], "strides": [1, 1], "padding": "valid", "data_format": "channels_last", "dilation_rate": [1, 1], "activation": "linear", "use_bias": true, "kernel_initializer": {"class_name": "VarianceScaling", "config": {"scale": 1.0, "mode": "fan_avg", "distribution": "uniform", "seed": null}}, "bias_initializer": {"class_name": "Zeros", "config": {}}, "kernel_regularizer": null, "bias_regularizer": null, "activity_regularizer": null, "kernel_constraint": null, "bias_constraint": null}, "inbound_nodes": [[["RDB_Concat_1_6", 0, 0, {}]]]}, {"name": "LRL_1", "class_name": "Add", "config": {"name": "LRL_1", "trainable": true}, "inbound_nodes": [[["LFF_1", 0, 0, {}], ["F_0", 0, 0, {}]]]}, {"name": "F_2_1", "class_name": "Conv2D", "config": {"name": "F_2_1", "trainable": true, "filters": 64, "kernel_size": [3, 3], "strides": [1, 1], "padding": "same", "data_format": "channels_last", "dilation_rate": [1, 1], "activation": "linear", "use_bias": true, "kernel_initializer": {"class_name": "VarianceScaling", "config": {"scale": 1.0, "mode": "fan_avg", "distribution": "uniform", "seed": null}}, "bias_initializer": {"class_name": "Zeros", "config": {}}, "kernel_regularizer": null, "bias_regularizer": null, "activity_regularizer": null, "kernel_constraint": null, "bias_constraint": null}, "inbound_nodes": [[["LRL_1", 0, 0, {}]]]}, {"name": "F_2_1_Relu", "class_name": "Activation", "config": {"name": "F_2_1_Relu", "trainable": true, "activation": "relu"}, "inbound_nodes": [[["F_2_1", 0, 0, {}]]]}, {"name": "RDB_Concat_2_1", "class_name": "Concatenate", "config": {"name": "RDB_Concat_2_1", "trainable": true, "axis": 3}, "inbound_nodes": [[["LRL_1", 0, 0, {}], ["F_2_1_Relu", 0, 0, {}]]]}, {"name": "F_2_2", "class_name": "Conv2D", "config": {"name": "F_2_2", "trainable": true, "filters": 64, "kernel_size": [3, 3], "strides": [1, 1], "padding": "same", "data_format": "channels_last", "dilation_rate": [1, 1], "activation": "linear", "use_bias": true, "kernel_initializer": {"class_name": "VarianceScaling", "config": {"scale": 1.0, "mode": "fan_avg", "distribution": "uniform", "seed": null}}, "bias_initializer": {"class_name": "Zeros", "config": {}}, "kernel_regularizer": null, "bias_regularizer": null, "activity_regularizer": null, "kernel_constraint": null, "bias_constraint": null}, "inbound_nodes": [[["RDB_Concat_2_1", 0, 0, {}]]]}, {"name": "F_2_2_Relu", "class_name": "Activation", "config": {"name": "F_2_2_Relu", "trainable": true, "activation": "relu"}, "inbound_nodes": [[["F_2_2", 0, 0, {}]]]}, {"name": "RDB_Concat_2_2", "class_name": "Concatenate", "config": {"name": "RDB_Concat_2_2", "trainable": true, "axis": 3}, "inbound_nodes": [[["RDB_Concat_2_1", 0, 0, {}], ["F_2_2_Relu", 0, 0, {}]]]}, {"name": "F_2_3", "class_name": "Conv2D", "config": {"name": "F_2_3", "trainable": true, "filters": 64, "kernel_size": [3, 3], "strides": [1, 1], "padding": "same", "data_format": "channels_last", "dilation_rate": [1, 1], "activation": "linear", "use_bias": true, "kernel_initializer": {"class_name": "VarianceScaling", "config": {"scale": 1.0, "mode": "fan_avg", "distribution": "uniform", "seed": null}}, "bias_initializer": {"class_name": "Zeros", "config": {}}, "kernel_regularizer": null, "bias_regularizer": null, "activity_regularizer": null, "kernel_constraint": null, "bias_constraint": null}, "inbound_nodes": [[["RDB_Concat_2_2", 0, 0, {}]]]}, {"name": "F_2_3_Relu", "class_name": "Activation", "config": {"name": "F_2_3_Relu", "trainable": true, "activation": "relu"}, "inbound_nodes": [[["F_2_3", 0, 0, {}]]]}, {"name": "RDB_Concat_2_3", "class_name": "Concatenate", "config": {"name": "RDB_Concat_2_3", "trainable": true, "axis": 3}, "inbound_nodes": [[["RDB_Concat_2_2", 0, 0, {}], ["F_2_3_Relu", 0, 0, {}]]]}, {"name": "F_2_4", "class_name": "Conv2D", "config": {"name": "F_2_4", "trainable": true, "filters": 64, "kernel_size": [3, 3], "strides": [1, 1], "padding": "same", "data_format": "channels_last", "dilation_rate": [1, 1], "activation": "linear", "use_bias": true, "kernel_initializer": {"class_name": "VarianceScaling", "config": {"scale": 1.0, "mode": "fan_avg", "distribution": "uniform", "seed": null}}, "bias_initializer": {"class_name": "Zeros", "config": {}}, "kernel_regularizer": null, "bias_regularizer": null, "activity_regularizer": null, "kernel_constraint": null, "bias_constraint": null}, "inbound_nodes": [[["RDB_Concat_2_3", 0, 0, {}]]]}, {"name": "F_2_4_Relu", "class_name": "Activation", "config": {"name": "F_2_4_Relu", "trainable": true, "activation": "relu"}, "inbound_nodes": [[["F_2_4", 0, 0, {}]]]}, {"name": "RDB_Concat_2_4", "class_name": "Concatenate", "config": {"name": "RDB_Concat_2_4", "trainable": true, "axis": 3}, "inbound_nodes": [[["RDB_Concat_2_3", 0, 0, {}], ["F_2_4_Relu", 0, 0, {}]]]}, {"name": "F_2_5", "class_name": "Conv2D", "config": {"name": "F_2_5", "trainable": true, "filters": 64, "kernel_size": [3, 3], "strides": [1, 1], "padding": "same", "data_format": "channels_last", "dilation_rate": [1, 1], "activation": "linear", "use_bias": true, "kernel_initializer": {"class_name": "VarianceScaling", "config": {"scale": 1.0, "mode": "fan_avg", "distribution": "uniform", "seed": null}}, "bias_initializer": {"class_name": "Zeros", "config": {}}, "kernel_regularizer": null, "bias_regularizer": null, "activity_regularizer": null, "kernel_constraint": null, "bias_constraint": null}, "inbound_nodes": [[["RDB_Concat_2_4", 0, 0, {}]]]}, {"name": "F_2_5_Relu", "class_name": "Activation", "config": {"name": "F_2_5_Relu", "trainable": true, "activation": "relu"}, "inbound_nodes": [[["F_2_5", 0, 0, {}]]]}, {"name": "RDB_Concat_2_5", "class_name": "Concatenate", "config": {"name": "RDB_Concat_2_5", "trainable": true, "axis": 3}, "inbound_nodes": [[["RDB_Concat_2_4", 0, 0, {}], ["F_2_5_Relu", 0, 0, {}]]]}, {"name": "F_2_6", "class_name": "Conv2D", "config": {"name": "F_2_6", "trainable": true, "filters": 64, "kernel_size": [3, 3], "strides": [1, 1], "padding": "same", "data_format": "channels_last", "dilation_rate": [1, 1], "activation": "linear", "use_bias": true, "kernel_initializer": {"class_name": "VarianceScaling", "config": {"scale": 1.0, "mode": "fan_avg", "distribution": "uniform", "seed": null}}, "bias_initializer": {"class_name": "Zeros", "config": {}}, "kernel_regularizer": null, "bias_regularizer": null, "activity_regularizer": null, "kernel_constraint": null, "bias_constraint": null}, "inbound_nodes": [[["RDB_Concat_2_5", 0, 0, {}]]]}, {"name": "F_2_6_Relu", "class_name": "Activation", "config": {"name": "F_2_6_Relu", "trainable": true, "activation": "relu"}, "inbound_nodes": [[["F_2_6", 0, 0, {}]]]}, {"name": "RDB_Concat_2_6", "class_name": "Concatenate", "config": {"name": "RDB_Concat_2_6", "trainable": true, "axis": 3}, "inbound_nodes": [[["RDB_Concat_2_5", 0, 0, {}], ["F_2_6_Relu", 0, 0, {}]]]}, {"name": "LFF_2", "class_name": "Conv2D", "config": {"name": "LFF_2", "trainable": true, "filters": 64, "kernel_size": [1, 1], "strides": [1, 1], "padding": "valid", "data_format": "channels_last", "dilation_rate": [1, 1], "activation": "linear", "use_bias": true, "kernel_initializer": {"class_name": "VarianceScaling", "config": {"scale": 1.0, "mode": "fan_avg", "distribution": "uniform", "seed": null}}, "bias_initializer": {"class_name": "Zeros", "config": {}}, "kernel_regularizer": null, "bias_regularizer": null, "activity_regularizer": null, "kernel_constraint": null, "bias_constraint": null}, "inbound_nodes": [[["RDB_Concat_2_6", 0, 0, {}]]]}, {"name": "LRL_2", "class_name": "Add", "config": {"name": "LRL_2", "trainable": true}, "inbound_nodes": [[["LFF_2", 0, 0, {}], ["LRL_1", 0, 0, {}]]]}, {"name": "F_3_1", "class_name": "Conv2D", "config": {"name": "F_3_1", "trainable": true, "filters": 64, "kernel_size": [3, 3], "strides": [1, 1], "padding": "same", "data_format": "channels_last", "dilation_rate": [1, 1], "activation": "linear", "use_bias": true, "kernel_initializer": {"class_name": "VarianceScaling", "config": {"scale": 1.0, "mode": "fan_avg", "distribution": "uniform", "seed": null}}, "bias_initializer": {"class_name": "Zeros", "config": {}}, "kernel_regularizer": null, "bias_regularizer": null, "activity_regularizer": null, "kernel_constraint": null, "bias_constraint": null}, "inbound_nodes": [[["LRL_2", 0, 0, {}]]]}, {"name": "F_3_1_Relu", "class_name": "Activation", "config": {"name": "F_3_1_Relu", "trainable": true, "activation": "relu"}, "inbound_nodes": [[["F_3_1", 0, 0, {}]]]}, {"name": "RDB_Concat_3_1", "class_name": "Concatenate", "config": {"name": "RDB_Concat_3_1", "trainable": true, "axis": 3}, "inbound_nodes": [[["LRL_2", 0, 0, {}], ["F_3_1_Relu", 0, 0, {}]]]}, {"name": "F_3_2", "class_name": "Conv2D", "config": {"name": "F_3_2", "trainable": true, "filters": 64, "kernel_size": [3, 3], "strides": [1, 1], "padding": "same", "data_format": "channels_last", "dilation_rate": [1, 1], "activation": "linear", "use_bias": true, "kernel_initializer": {"class_name": "VarianceScaling", "config": {"scale": 1.0, "mode": "fan_avg", "distribution": "uniform", "seed": null}}, "bias_initializer": {"class_name": "Zeros", "config": {}}, "kernel_regularizer": null, "bias_regularizer": null, "activity_regularizer": null, "kernel_constraint": null, "bias_constraint": null}, "inbound_nodes": [[["RDB_Concat_3_1", 0, 0, {}]]]}, {"name": "F_3_2_Relu", "class_name": "Activation", "config": {"name": "F_3_2_Relu", "trainable": true, "activation": "relu"}, "inbound_nodes": [[["F_3_2", 0, 0, {}]]]}, {"name": "RDB_Concat_3_2", "class_name": "Concatenate", "config": {"name": "RDB_Concat_3_2", "trainable": true, "axis": 3}, "inbound_nodes": [[["RDB_Concat_3_1", 0, 0, {}], ["F_3_2_Relu", 0, 0, {}]]]}, {"name": "F_3_3", "class_name": "Conv2D", "config": {"name": "F_3_3", "trainable": true, "filters": 64, "kernel_size": [3, 3], "strides": [1, 1], "padding": "same", "data_format": "channels_last", "dilation_rate": [1, 1], "activation": "linear", "use_bias": true, "kernel_initializer": {"class_name": "VarianceScaling", "config": {"scale": 1.0, "mode": "fan_avg", "distribution": "uniform", "seed": null}}, "bias_initializer": {"class_name": "Zeros", "config": {}}, "kernel_regularizer": null, "bias_regularizer": null, "activity_regularizer": null, "kernel_constraint": null, "bias_constraint": null}, "inbound_nodes": [[["RDB_Concat_3_2", 0, 0, {}]]]}, {"name": "F_3_3_Relu", "class_name": "Activation", "config": {"name": "F_3_3_Relu", "trainable": true, "activation": "relu"}, "inbound_nodes": [[["F_3_3", 0, 0, {}]]]}, {"name": "RDB_Concat_3_3", "class_name": "Concatenate", "config": {"name": "RDB_Concat_3_3", "trainable": true, "axis": 3}, "inbound_nodes": [[["RDB_Concat_3_2", 0, 0, {}], ["F_3_3_Relu", 0, 0, {}]]]}, {"name": "F_3_4", "class_name": "Conv2D", "config": {"name": "F_3_4", "trainable": true, "filters": 64, "kernel_size": [3, 3], "strides": [1, 1], "padding": "same", "data_format": "channels_last", "dilation_rate": [1, 1], "activation": "linear", "use_bias": true, "kernel_initializer": {"class_name": "VarianceScaling", "config": {"scale": 1.0, "mode": "fan_avg", "distribution": "uniform", "seed": null}}, "bias_initializer": {"class_name": "Zeros", "config": {}}, "kernel_regularizer": null, "bias_regularizer": null, "activity_regularizer": null, "kernel_constraint": null, "bias_constraint": null}, "inbound_nodes": [[["RDB_Concat_3_3", 0, 0, {}]]]}, {"name": "F_3_4_Relu", "class_name": "Activation", "config": {"name": "F_3_4_Relu", "trainable": true, "activation": "relu"}, "inbound_nodes": [[["F_3_4", 0, 0, {}]]]}, {"name": "RDB_Concat_3_4", "class_name": "Concatenate", "config": {"name": "RDB_Concat_3_4", "trainable": true, "axis": 3}, "inbound_nodes": [[["RDB_Concat_3_3", 0, 0, {}], ["F_3_4_Relu", 0, 0, {}]]]}, {"name": "F_3_5", "class_name": "Conv2D", "config": {"name": "F_3_5", "trainable": true, "filters": 64, "kernel_size": [3, 3], "strides": [1, 1], "padding": "same", "data_format": "channels_last", "dilation_rate": [1, 1], "activation": "linear", "use_bias": true, "kernel_initializer": {"class_name": "VarianceScaling", "config": {"scale": 1.0, "mode": "fan_avg", "distribution": "uniform", "seed": null}}, "bias_initializer": {"class_name": "Zeros", "config": {}}, "kernel_regularizer": null, "bias_regularizer": null, "activity_regularizer": null, "kernel_constraint": null, "bias_constraint": null}, "inbound_nodes": [[["RDB_Concat_3_4", 0, 0, {}]]]}, {"name": "F_3_5_Relu", "class_name": "Activation", "config": {"name": "F_3_5_Relu", "trainable": true, "activation": "relu"}, "inbound_nodes": [[["F_3_5", 0, 0, {}]]]}, {"name": "RDB_Concat_3_5", "class_name": "Concatenate", "config": {"name": "RDB_Concat_3_5", "trainable": true, "axis": 3}, "inbound_nodes": [[["RDB_Concat_3_4", 0, 0, {}], ["F_3_5_Relu", 0, 0, {}]]]}, {"name": "F_3_6", "class_name": "Conv2D", "config": {"name": "F_3_6", "trainable": true, "filters": 64, "kernel_size": [3, 3], "strides": [1, 1], "padding": "same", "data_format": "channels_last", "dilation_rate": [1, 1], "activation": "linear", "use_bias": true, "kernel_initializer": {"class_name": "VarianceScaling", "config": {"scale": 1.0, "mode": "fan_avg", "distribution": "uniform", "seed": null}}, "bias_initializer": {"class_name": "Zeros", "config": {}}, "kernel_regularizer": null, "bias_regularizer": null, "activity_regularizer": null, "kernel_constraint": null, "bias_constraint": null}, "inbound_nodes": [[["RDB_Concat_3_5", 0, 0, {}]]]}, {"name": "F_3_6_Relu", "class_name": "Activation", "config": {"name": "F_3_6_Relu", "trainable": true, "activation": "relu"}, "inbound_nodes": [[["F_3_6", 0, 0, {}]]]}, {"name": "RDB_Concat_3_6", "class_name": "Concatenate", "config": {"name": "RDB_Concat_3_6", "trainable": true, "axis": 3}, "inbound_nodes": [[["RDB_Concat_3_5", 0, 0, {}], ["F_3_6_Relu", 0, 0, {}]]]}, {"name": "LFF_3", "class_name": "Conv2D", "config": {"name": "LFF_3", "trainable": true, "filters": 64, "kernel_size": [1, 1], "strides": [1, 1], "padding": "valid", "data_format": "channels_last", "dilation_rate": [1, 1], "activation": "linear", "use_bias": true, "kernel_initializer": {"class_name": "VarianceScaling", "config": {"scale": 1.0, "mode": "fan_avg", "distribution": "uniform", "seed": null}}, "bias_initializer": {"class_name": "Zeros", "config": {}}, "kernel_regularizer": null, "bias_regularizer": null, "activity_regularizer": null, "kernel_constraint": null, "bias_constraint": null}, "inbound_nodes": [[["RDB_Concat_3_6", 0, 0, {}]]]}, {"name": "LRL_3", "class_name": "Add", "config": {"name": "LRL_3", "trainable": true}, "inbound_nodes": [[["LFF_3", 0, 0, {}], ["LRL_2", 0, 0, {}]]]}, {"name": "F_4_1", "class_name": "Conv2D", "config": {"name": "F_4_1", "trainable": true, "filters": 64, "kernel_size": [3, 3], "strides": [1, 1], "padding": "same", "data_format": "channels_last", "dilation_rate": [1, 1], "activation": "linear", "use_bias": true, "kernel_initializer": {"class_name": "VarianceScaling", "config": {"scale": 1.0, "mode": "fan_avg", "distribution": "uniform", "seed": null}}, "bias_initializer": {"class_name": "Zeros", "config": {}}, "kernel_regularizer": null, "bias_regularizer": null, "activity_regularizer": null, "kernel_constraint": null, "bias_constraint": null}, "inbound_nodes": [[["LRL_3", 0, 0, {}]]]}, {"name": "F_4_1_Relu", "class_name": "Activation", "config": {"name": "F_4_1_Relu", "trainable": true, "activation": "relu"}, "inbound_nodes": [[["F_4_1", 0, 0, {}]]]}, {"name": "RDB_Concat_4_1", "class_name": "Concatenate", "config": {"name": "RDB_Concat_4_1", "trainable": true, "axis": 3}, "inbound_nodes": [[["LRL_3", 0, 0, {}], ["F_4_1_Relu", 0, 0, {}]]]}, {"name": "F_4_2", "class_name": "Conv2D", "config": {"name": "F_4_2", "trainable": true, "filters": 64, "kernel_size": [3, 3], "strides": [1, 1], "padding": "same", "data_format": "channels_last", "dilation_rate": [1, 1], "activation": "linear", "use_bias": true, "kernel_initializer": {"class_name": "VarianceScaling", "config": {"scale": 1.0, "mode": "fan_avg", "distribution": "uniform", "seed": null}}, "bias_initializer": {"class_name": "Zeros", "config": {}}, "kernel_regularizer": null, "bias_regularizer": null, "activity_regularizer": null, "kernel_constraint": null, "bias_constraint": null}, "inbound_nodes": [[["RDB_Concat_4_1", 0, 0, {}]]]}, {"name": "F_4_2_Relu", "class_name": "Activation", "config": {"name": "F_4_2_Relu", "trainable": true, "activation": "relu"}, "inbound_nodes": [[["F_4_2", 0, 0, {}]]]}, {"name": "RDB_Concat_4_2", "class_name": "Concatenate", "config": {"name": "RDB_Concat_4_2", "trainable": true, "axis": 3}, "inbound_nodes": [[["RDB_Concat_4_1", 0, 0, {}], ["F_4_2_Relu", 0, 0, {}]]]}, {"name": "F_4_3", "class_name": "Conv2D", "config": {"name": "F_4_3", "trainable": true, "filters": 64, "kernel_size": [3, 3], "strides": [1, 1], "padding": "same", "data_format": "channels_last", "dilation_rate": [1, 1], "activation": "linear", "use_bias": true, "kernel_initializer": {"class_name": "VarianceScaling", "config": {"scale": 1.0, "mode": "fan_avg", "distribution": "uniform", "seed": null}}, "bias_initializer": {"class_name": "Zeros", "config": {}}, "kernel_regularizer": null, "bias_regularizer": null, "activity_regularizer": null, "kernel_constraint": null, "bias_constraint": null}, "inbound_nodes": [[["RDB_Concat_4_2", 0, 0, {}]]]}, {"name": "F_4_3_Relu", "class_name": "Activation", "config": {"name": "F_4_3_Relu", "trainable": true, "activation": "relu"}, "inbound_nodes": [[["F_4_3", 0, 0, {}]]]}, {"name": "RDB_Concat_4_3", "class_name": "Concatenate", "config": {"name": "RDB_Concat_4_3", "trainable": true, "axis": 3}, "inbound_nodes": [[["RDB_Concat_4_2", 0, 0, {}], ["F_4_3_Relu", 0, 0, {}]]]}, {"name": "F_4_4", "class_name": "Conv2D", "config": {"name": "F_4_4", "trainable": true, "filters": 64, "kernel_size": [3, 3], "strides": [1, 1], "padding": "same", "data_format": "channels_last", "dilation_rate": [1, 1], "activation": "linear", "use_bias": true, "kernel_initializer": {"class_name": "VarianceScaling", "config": {"scale": 1.0, "mode": "fan_avg", "distribution": "uniform", "seed": null}}, "bias_initializer": {"class_name": "Zeros", "config": {}}, "kernel_regularizer": null, "bias_regularizer": null, "activity_regularizer": null, "kernel_constraint": null, "bias_constraint": null}, "inbound_nodes": [[["RDB_Concat_4_3", 0, 0, {}]]]}, {"name": "F_4_4_Relu", "class_name": "Activation", "config": {"name": "F_4_4_Relu", "trainable": true, "activation": "relu"}, "inbound_nodes": [[["F_4_4", 0, 0, {}]]]}, {"name": "RDB_Concat_4_4", "class_name": "Concatenate", "config": {"name": "RDB_Concat_4_4", "trainable": true, "axis": 3}, "inbound_nodes": [[["RDB_Concat_4_3", 0, 0, {}], ["F_4_4_Relu", 0, 0, {}]]]}, {"name": "F_4_5", "class_name": "Conv2D", "config": {"name": "F_4_5", "trainable": true, "filters": 64, "kernel_size": [3, 3], "strides": [1, 1], "padding": "same", "data_format": "channels_last", "dilation_rate": [1, 1], "activation": "linear", "use_bias": true, "kernel_initializer": {"class_name": "VarianceScaling", "config": {"scale": 1.0, "mode": "fan_avg", "distribution": "uniform", "seed": null}}, "bias_initializer": {"class_name": "Zeros", "config": {}}, "kernel_regularizer": null, "bias_regularizer": null, "activity_regularizer": null, "kernel_constraint": null, "bias_constraint": null}, "inbound_nodes": [[["RDB_Concat_4_4", 0, 0, {}]]]}, {"name": "F_4_5_Relu", "class_name": "Activation", "config": {"name": "F_4_5_Relu", "trainable": true, "activation": "relu"}, "inbound_nodes": [[["F_4_5", 0, 0, {}]]]}, {"name": "RDB_Concat_4_5", "class_name": "Concatenate", "config": {"name": "RDB_Concat_4_5", "trainable": true, "axis": 3}, "inbound_nodes": [[["RDB_Concat_4_4", 0, 0, {}], ["F_4_5_Relu", 0, 0, {}]]]}, {"name": "F_4_6", "class_name": "Conv2D", "config": {"name": "F_4_6", "trainable": true, "filters": 64, "kernel_size": [3, 3], "strides": [1, 1], "padding": "same", "data_format": "channels_last", "dilation_rate": [1, 1], "activation": "linear", "use_bias": true, "kernel_initializer": {"class_name": "VarianceScaling", "config": {"scale": 1.0, "mode": "fan_avg", "distribution": "uniform", "seed": null}}, "bias_initializer": {"class_name": "Zeros", "config": {}}, "kernel_regularizer": null, "bias_regularizer": null, "activity_regularizer": null, "kernel_constraint": null, "bias_constraint": null}, "inbound_nodes": [[["RDB_Concat_4_5", 0, 0, {}]]]}, {"name": "F_4_6_Relu", "class_name": "Activation", "config": {"name": "F_4_6_Relu", "trainable": true, "activation": "relu"}, "inbound_nodes": [[["F_4_6", 0, 0, {}]]]}, {"name": "RDB_Concat_4_6", "class_name": "Concatenate", "config": {"name": "RDB_Concat_4_6", "trainable": true, "axis": 3}, "inbound_nodes": [[["RDB_Concat_4_5", 0, 0, {}], ["F_4_6_Relu", 0, 0, {}]]]}, {"name": "LFF_4", "class_name": "Conv2D", "config": {"name": "LFF_4", "trainable": true, "filters": 64, "kernel_size": [1, 1], "strides": [1, 1], "padding": "valid", "data_format": "channels_last", "dilation_rate": [1, 1], "activation": "linear", "use_bias": true, "kernel_initializer": {"class_name": "VarianceScaling", "config": {"scale": 1.0, "mode": "fan_avg", "distribution": "uniform", "seed": null}}, "bias_initializer": {"class_name": "Zeros", "config": {}}, "kernel_regularizer": null, "bias_regularizer": null, "activity_regularizer": null, "kernel_constraint": null, "bias_constraint": null}, "inbound_nodes": [[["RDB_Concat_4_6", 0, 0, {}]]]}, {"name": "LRL_4", "class_name": "Add", "config": {"name": "LRL_4", "trainable": true}, "inbound_nodes": [[["LFF_4", 0, 0, {}], ["LRL_3", 0, 0, {}]]]}, {"name": "F_5_1", "class_name": "Conv2D", "config": {"name": "F_5_1", "trainable": true, "filters": 64, "kernel_size": [3, 3], "strides": [1, 1], "padding": "same", "data_format": "channels_last", "dilation_rate": [1, 1], "activation": "linear", "use_bias": true, "kernel_initializer": {"class_name": "VarianceScaling", "config": {"scale": 1.0, "mode": "fan_avg", "distribution": "uniform", "seed": null}}, "bias_initializer": {"class_name": "Zeros", "config": {}}, "kernel_regularizer": null, "bias_regularizer": null, "activity_regularizer": null, "kernel_constraint": null, "bias_constraint": null}, "inbound_nodes": [[["LRL_4", 0, 0, {}]]]}, {"name": "F_5_1_Relu", "class_name": "Activation", "config": {"name": "F_5_1_Relu", "trainable": true, "activation": "relu"}, "inbound_nodes": [[["F_5_1", 0, 0, {}]]]}, {"name": "RDB_Concat_5_1", "class_name": "Concatenate", "config": {"name": "RDB_Concat_5_1", "trainable": true, "axis": 3}, "inbound_nodes": [[["LRL_4", 0, 0, {}], ["F_5_1_Relu", 0, 0, {}]]]}, {"name": "F_5_2", "class_name": "Conv2D", "config": {"name": "F_5_2", "trainable": true, "filters": 64, "kernel_size": [3, 3], "strides": [1, 1], "padding": "same", "data_format": "channels_last", "dilation_rate": [1, 1], "activation": "linear", "use_bias": true, "kernel_initializer": {"class_name": "VarianceScaling", "config": {"scale": 1.0, "mode": "fan_avg", "distribution": "uniform", "seed": null}}, "bias_initializer": {"class_name": "Zeros", "config": {}}, "kernel_regularizer": null, "bias_regularizer": null, "activity_regularizer": null, "kernel_constraint": null, "bias_constraint": null}, "inbound_nodes": [[["RDB_Concat_5_1", 0, 0, {}]]]}, {"name": "F_5_2_Relu", "class_name": "Activation", "config": {"name": "F_5_2_Relu", "trainable": true, "activation": "relu"}, "inbound_nodes": [[["F_5_2", 0, 0, {}]]]}, {"name": "RDB_Concat_5_2", "class_name": "Concatenate", "config": {"name": "RDB_Concat_5_2", "trainable": true, "axis": 3}, "inbound_nodes": [[["RDB_Concat_5_1", 0, 0, {}], ["F_5_2_Relu", 0, 0, {}]]]}, {"name": "F_5_3", "class_name": "Conv2D", "config": {"name": "F_5_3", "trainable": true, "filters": 64, "kernel_size": [3, 3], "strides": [1, 1], "padding": "same", "data_format": "channels_last", "dilation_rate": [1, 1], "activation": "linear", "use_bias": true, "kernel_initializer": {"class_name": "VarianceScaling", "config": {"scale": 1.0, "mode": "fan_avg", "distribution": "uniform", "seed": null}}, "bias_initializer": {"class_name": "Zeros", "config": {}}, "kernel_regularizer": null, "bias_regularizer": null, "activity_regularizer": null, "kernel_constraint": null, "bias_constraint": null}, "inbound_nodes": [[["RDB_Concat_5_2", 0, 0, {}]]]}, {"name": "F_5_3_Relu", "class_name": "Activation", "config": {"name": "F_5_3_Relu", "trainable": true, "activation": "relu"}, "inbound_nodes": [[["F_5_3", 0, 0, {}]]]}, {"name": "RDB_Concat_5_3", "class_name": "Concatenate", "config": {"name": "RDB_Concat_5_3", "trainable": true, "axis": 3}, "inbound_nodes": [[["RDB_Concat_5_2", 0, 0, {}], ["F_5_3_Relu", 0, 0, {}]]]}, {"name": "F_5_4", "class_name": "Conv2D", "config": {"name": "F_5_4", "trainable": true, "filters": 64, "kernel_size": [3, 3], "strides": [1, 1], "padding": "same", "data_format": "channels_last", "dilation_rate": [1, 1], "activation": "linear", "use_bias": true, "kernel_initializer": {"class_name": "VarianceScaling", "config": {"scale": 1.0, "mode": "fan_avg", "distribution": "uniform", "seed": null}}, "bias_initializer": {"class_name": "Zeros", "config": {}}, "kernel_regularizer": null, "bias_regularizer": null, "activity_regularizer": null, "kernel_constraint": null, "bias_constraint": null}, "inbound_nodes": [[["RDB_Concat_5_3", 0, 0, {}]]]}, {"name": "F_5_4_Relu", "class_name": "Activation", "config": {"name": "F_5_4_Relu", "trainable": true, "activation": "relu"}, "inbound_nodes": [[["F_5_4", 0, 0, {}]]]}, {"name": "RDB_Concat_5_4", "class_name": "Concatenate", "config": {"name": "RDB_Concat_5_4", "trainable": true, "axis": 3}, "inbound_nodes": [[["RDB_Concat_5_3", 0, 0, {}], ["F_5_4_Relu", 0, 0, {}]]]}, {"name": "F_5_5", "class_name": "Conv2D", "config": {"name": "F_5_5", "trainable": true, "filters": 64, "kernel_size": [3, 3], "strides": [1, 1], "padding": "same", "data_format": "channels_last", "dilation_rate": [1, 1], "activation": "linear", "use_bias": true, "kernel_initializer": {"class_name": "VarianceScaling", "config": {"scale": 1.0, "mode": "fan_avg", "distribution": "uniform", "seed": null}}, "bias_initializer": {"class_name": "Zeros", "config": {}}, "kernel_regularizer": null, "bias_regularizer": null, "activity_regularizer": null, "kernel_constraint": null, "bias_constraint": null}, "inbound_nodes": [[["RDB_Concat_5_4", 0, 0, {}]]]}, {"name": "F_5_5_Relu", "class_name": "Activation", "config": {"name": "F_5_5_Relu", "trainable": true, "activation": "relu"}, "inbound_nodes": [[["F_5_5", 0, 0, {}]]]}, {"name": "RDB_Concat_5_5", "class_name": "Concatenate", "config": {"name": "RDB_Concat_5_5", "trainable": true, "axis": 3}, "inbound_nodes": [[["RDB_Concat_5_4", 0, 0, {}], ["F_5_5_Relu", 0, 0, {}]]]}, {"name": "F_5_6", "class_name": "Conv2D", "config": {"name": "F_5_6", "trainable": true, "filters": 64, "kernel_size": [3, 3], "strides": [1, 1], "padding": "same", "data_format": "channels_last", "dilation_rate": [1, 1], "activation": "linear", "use_bias": true, "kernel_initializer": {"class_name": "VarianceScaling", "config": {"scale": 1.0, "mode": "fan_avg", "distribution": "uniform", "seed": null}}, "bias_initializer": {"class_name": "Zeros", "config": {}}, "kernel_regularizer": null, "bias_regularizer": null, "activity_regularizer": null, "kernel_constraint": null, "bias_constraint": null}, "inbound_nodes": [[["RDB_Concat_5_5", 0, 0, {}]]]}, {"name": "F_5_6_Relu", "class_name": "Activation", "config": {"name": "F_5_6_Relu", "trainable": true, "activation": "relu"}, "inbound_nodes": [[["F_5_6", 0, 0, {}]]]}, {"name": "RDB_Concat_5_6", "class_name": "Concatenate", "config": {"name": "RDB_Concat_5_6", "trainable": true, "axis": 3}, "inbound_nodes": [[["RDB_Concat_5_5", 0, 0, {}], ["F_5_6_Relu", 0, 0, {}]]]}, {"name": "LFF_5", "class_name": "Conv2D", "config": {"name": "LFF_5", "trainable": true, "filters": 64, "kernel_size": [1, 1], "strides": [1, 1], "padding": "valid", "data_format": "channels_last", "dilation_rate": [1, 1], "activation": "linear", "use_bias": true, "kernel_initializer": {"class_name": "VarianceScaling", "config": {"scale": 1.0, "mode": "fan_avg", "distribution": "uniform", "seed": null}}, "bias_initializer": {"class_name": "Zeros", "config": {}}, "kernel_regularizer": null, "bias_regularizer": null, "activity_regularizer": null, "kernel_constraint": null, "bias_constraint": null}, "inbound_nodes": [[["RDB_Concat_5_6", 0, 0, {}]]]}, {"name": "LRL_5", "class_name": "Add", "config": {"name": "LRL_5", "trainable": true}, "inbound_nodes": [[["LFF_5", 0, 0, {}], ["LRL_4", 0, 0, {}]]]}, {"name": "F_6_1", "class_name": "Conv2D", "config": {"name": "F_6_1", "trainable": true, "filters": 64, "kernel_size": [3, 3], "strides": [1, 1], "padding": "same", "data_format": "channels_last", "dilation_rate": [1, 1], "activation": "linear", "use_bias": true, "kernel_initializer": {"class_name": "VarianceScaling", "config": {"scale": 1.0, "mode": "fan_avg", "distribution": "uniform", "seed": null}}, "bias_initializer": {"class_name": "Zeros", "config": {}}, "kernel_regularizer": null, "bias_regularizer": null, "activity_regularizer": null, "kernel_constraint": null, "bias_constraint": null}, "inbound_nodes": [[["LRL_5", 0, 0, {}]]]}, {"name": "F_6_1_Relu", "class_name": "Activation", "config": {"name": "F_6_1_Relu", "trainable": true, "activation": "relu"}, "inbound_nodes": [[["F_6_1", 0, 0, {}]]]}, {"name": "RDB_Concat_6_1", "class_name": "Concatenate", "config": {"name": "RDB_Concat_6_1", "trainable": true, "axis": 3}, "inbound_nodes": [[["LRL_5", 0, 0, {}], ["F_6_1_Relu", 0, 0, {}]]]}, {"name": "F_6_2", "class_name": "Conv2D", "config": {"name": "F_6_2", "trainable": true, "filters": 64, "kernel_size": [3, 3], "strides": [1, 1], "padding": "same", "data_format": "channels_last", "dilation_rate": [1, 1], "activation": "linear", "use_bias": true, "kernel_initializer": {"class_name": "VarianceScaling", "config": {"scale": 1.0, "mode": "fan_avg", "distribution": "uniform", "seed": null}}, "bias_initializer": {"class_name": "Zeros", "config": {}}, "kernel_regularizer": null, "bias_regularizer": null, "activity_regularizer": null, "kernel_constraint": null, "bias_constraint": null}, "inbound_nodes": [[["RDB_Concat_6_1", 0, 0, {}]]]}, {"name": "F_6_2_Relu", "class_name": "Activation", "config": {"name": "F_6_2_Relu", "trainable": true, "activation": "relu"}, "inbound_nodes": [[["F_6_2", 0, 0, {}]]]}, {"name": "RDB_Concat_6_2", "class_name": "Concatenate", "config": {"name": "RDB_Concat_6_2", "trainable": true, "axis": 3}, "inbound_nodes": [[["RDB_Concat_6_1", 0, 0, {}], ["F_6_2_Relu", 0, 0, {}]]]}, {"name": "F_6_3", "class_name": "Conv2D", "config": {"name": "F_6_3", "trainable": true, "filters": 64, "kernel_size": [3, 3], "strides": [1, 1], "padding": "same", "data_format": "channels_last", "dilation_rate": [1, 1], "activation": "linear", "use_bias": true, "kernel_initializer": {"class_name": "VarianceScaling", "config": {"scale": 1.0, "mode": "fan_avg", "distribution": "uniform", "seed": null}}, "bias_initializer": {"class_name": "Zeros", "config": {}}, "kernel_regularizer": null, "bias_regularizer": null, "activity_regularizer": null, "kernel_constraint": null, "bias_constraint": null}, "inbound_nodes": [[["RDB_Concat_6_2", 0, 0, {}]]]}, {"name": "F_6_3_Relu", "class_name": "Activation", "config": {"name": "F_6_3_Relu", "trainable": true, "activation": "relu"}, "inbound_nodes": [[["F_6_3", 0, 0, {}]]]}, {"name": "RDB_Concat_6_3", "class_name": "Concatenate", "config": {"name": "RDB_Concat_6_3", "trainable": true, "axis": 3}, "inbound_nodes": [[["RDB_Concat_6_2", 0, 0, {}], ["F_6_3_Relu", 0, 0, {}]]]}, {"name": "F_6_4", "class_name": "Conv2D", "config": {"name": "F_6_4", "trainable": true, "filters": 64, "kernel_size": [3, 3], "strides": [1, 1], "padding": "same", "data_format": "channels_last", "dilation_rate": [1, 1], "activation": "linear", "use_bias": true, "kernel_initializer": {"class_name": "VarianceScaling", "config": {"scale": 1.0, "mode": "fan_avg", "distribution": "uniform", "seed": null}}, "bias_initializer": {"class_name": "Zeros", "config": {}}, "kernel_regularizer": null, "bias_regularizer": null, "activity_regularizer": null, "kernel_constraint": null, "bias_constraint": null}, "inbound_nodes": [[["RDB_Concat_6_3", 0, 0, {}]]]}, {"name": "F_6_4_Relu", "class_name": "Activation", "config": {"name": "F_6_4_Relu", "trainable": true, "activation": "relu"}, "inbound_nodes": [[["F_6_4", 0, 0, {}]]]}, {"name": "RDB_Concat_6_4", "class_name": "Concatenate", "config": {"name": "RDB_Concat_6_4", "trainable": true, "axis": 3}, "inbound_nodes": [[["RDB_Concat_6_3", 0, 0, {}], ["F_6_4_Relu", 0, 0, {}]]]}, {"name": "F_6_5", "class_name": "Conv2D", "config": {"name": "F_6_5", "trainable": true, "filters": 64, "kernel_size": [3, 3], "strides": [1, 1], "padding": "same", "data_format": "channels_last", "dilation_rate": [1, 1], "activation": "linear", "use_bias": true, "kernel_initializer": {"class_name": "VarianceScaling", "config": {"scale": 1.0, "mode": "fan_avg", "distribution": "uniform", "seed": null}}, "bias_initializer": {"class_name": "Zeros", "config": {}}, "kernel_regularizer": null, "bias_regularizer": null, "activity_regularizer": null, "kernel_constraint": null, "bias_constraint": null}, "inbound_nodes": [[["RDB_Concat_6_4", 0, 0, {}]]]}, {"name": "F_6_5_Relu", "class_name": "Activation", "config": {"name": "F_6_5_Relu", "trainable": true, "activation": "relu"}, "inbound_nodes": [[["F_6_5", 0, 0, {}]]]}, {"name": "RDB_Concat_6_5", "class_name": "Concatenate", "config": {"name": "RDB_Concat_6_5", "trainable": true, "axis": 3}, "inbound_nodes": [[["RDB_Concat_6_4", 0, 0, {}], ["F_6_5_Relu", 0, 0, {}]]]}, {"name": "F_6_6", "class_name": "Conv2D", "config": {"name": "F_6_6", "trainable": true, "filters": 64, "kernel_size": [3, 3], "strides": [1, 1], "padding": "same", "data_format": "channels_last", "dilation_rate": [1, 1], "activation": "linear", "use_bias": true, "kernel_initializer": {"class_name": "VarianceScaling", "config": {"scale": 1.0, "mode": "fan_avg", "distribution": "uniform", "seed": null}}, "bias_initializer": {"class_name": "Zeros", "config": {}}, "kernel_regularizer": null, "bias_regularizer": null, "activity_regularizer": null, "kernel_constraint": null, "bias_constraint": null}, "inbound_nodes": [[["RDB_Concat_6_5", 0, 0, {}]]]}, {"name": "F_6_6_Relu", "class_name": "Activation", "config": {"name": "F_6_6_Relu", "trainable": true, "activation": "relu"}, "inbound_nodes": [[["F_6_6", 0, 0, {}]]]}, {"name": "RDB_Concat_6_6", "class_name": "Concatenate", "config": {"name": "RDB_Concat_6_6", "trainable": true, "axis": 3}, "inbound_nodes": [[["RDB_Concat_6_5", 0, 0, {}], ["F_6_6_Relu", 0, 0, {}]]]}, {"name": "LFF_6", "class_name": "Conv2D", "config": {"name": "LFF_6", "trainable": true, "filters": 64, "kernel_size": [1, 1], "strides": [1, 1], "padding": "valid", "data_format": "channels_last", "dilation_rate": [1, 1], "activation": "linear", "use_bias": true, "kernel_initializer": {"class_name": "VarianceScaling", "config": {"scale": 1.0, "mode": "fan_avg", "distribution": "uniform", "seed": null}}, "bias_initializer": {"class_name": "Zeros", "config": {}}, "kernel_regularizer": null, "bias_regularizer": null, "activity_regularizer": null, "kernel_constraint": null, "bias_constraint": null}, "inbound_nodes": [[["RDB_Concat_6_6", 0, 0, {}]]]}, {"name": "LRL_6", "class_name": "Add", "config": {"name": "LRL_6", "trainable": true}, "inbound_nodes": [[["LFF_6", 0, 0, {}], ["LRL_5", 0, 0, {}]]]}, {"name": "F_7_1", "class_name": "Conv2D", "config": {"name": "F_7_1", "trainable": true, "filters": 64, "kernel_size": [3, 3], "strides": [1, 1], "padding": "same", "data_format": "channels_last", "dilation_rate": [1, 1], "activation": "linear", "use_bias": true, "kernel_initializer": {"class_name": "VarianceScaling", "config": {"scale": 1.0, "mode": "fan_avg", "distribution": "uniform", "seed": null}}, "bias_initializer": {"class_name": "Zeros", "config": {}}, "kernel_regularizer": null, "bias_regularizer": null, "activity_regularizer": null, "kernel_constraint": null, "bias_constraint": null}, "inbound_nodes": [[["LRL_6", 0, 0, {}]]]}, {"name": "F_7_1_Relu", "class_name": "Activation", "config": {"name": "F_7_1_Relu", "trainable": true, "activation": "relu"}, "inbound_nodes": [[["F_7_1", 0, 0, {}]]]}, {"name": "RDB_Concat_7_1", "class_name": "Concatenate", "config": {"name": "RDB_Concat_7_1", "trainable": true, "axis": 3}, "inbound_nodes": [[["LRL_6", 0, 0, {}], ["F_7_1_Relu", 0, 0, {}]]]}, {"name": "F_7_2", "class_name": "Conv2D", "config": {"name": "F_7_2", "trainable": true, "filters": 64, "kernel_size": [3, 3], "strides": [1, 1], "padding": "same", "data_format": "channels_last", "dilation_rate": [1, 1], "activation": "linear", "use_bias": true, "kernel_initializer": {"class_name": "VarianceScaling", "config": {"scale": 1.0, "mode": "fan_avg", "distribution": "uniform", "seed": null}}, "bias_initializer": {"class_name": "Zeros", "config": {}}, "kernel_regularizer": null, "bias_regularizer": null, "activity_regularizer": null, "kernel_constraint": null, "bias_constraint": null}, "inbound_nodes": [[["RDB_Concat_7_1", 0, 0, {}]]]}, {"name": "F_7_2_Relu", "class_name": "Activation", "config": {"name": "F_7_2_Relu", "trainable": true, "activation": "relu"}, "inbound_nodes": [[["F_7_2", 0, 0, {}]]]}, {"name": "RDB_Concat_7_2", "class_name": "Concatenate", "config": {"name": "RDB_Concat_7_2", "trainable": true, "axis": 3}, "inbound_nodes": [[["RDB_Concat_7_1", 0, 0, {}], ["F_7_2_Relu", 0, 0, {}]]]}, {"name": "F_7_3", "class_name": "Conv2D", "config": {"name": "F_7_3", "trainable": true, "filters": 64, "kernel_size": [3, 3], "strides": [1, 1], "padding": "same", "data_format": "channels_last", "dilation_rate": [1, 1], "activation": "linear", "use_bias": true, "kernel_initializer": {"class_name": "VarianceScaling", "config": {"scale": 1.0, "mode": "fan_avg", "distribution": "uniform", "seed": null}}, "bias_initializer": {"class_name": "Zeros", "config": {}}, "kernel_regularizer": null, "bias_regularizer": null, "activity_regularizer": null, "kernel_constraint": null, "bias_constraint": null}, "inbound_nodes": [[["RDB_Concat_7_2", 0, 0, {}]]]}, {"name": "F_7_3_Relu", "class_name": "Activation", "config": {"name": "F_7_3_Relu", "trainable": true, "activation": "relu"}, "inbound_nodes": [[["F_7_3", 0, 0, {}]]]}, {"name": "RDB_Concat_7_3", "class_name": "Concatenate", "config": {"name": "RDB_Concat_7_3", "trainable": true, "axis": 3}, "inbound_nodes": [[["RDB_Concat_7_2", 0, 0, {}], ["F_7_3_Relu", 0, 0, {}]]]}, {"name": "F_7_4", "class_name": "Conv2D", "config": {"name": "F_7_4", "trainable": true, "filters": 64, "kernel_size": [3, 3], "strides": [1, 1], "padding": "same", "data_format": "channels_last", "dilation_rate": [1, 1], "activation": "linear", "use_bias": true, "kernel_initializer": {"class_name": "VarianceScaling", "config": {"scale": 1.0, "mode": "fan_avg", "distribution": "uniform", "seed": null}}, "bias_initializer": {"class_name": "Zeros", "config": {}}, "kernel_regularizer": null, "bias_regularizer": null, "activity_regularizer": null, "kernel_constraint": null, "bias_constraint": null}, "inbound_nodes": [[["RDB_Concat_7_3", 0, 0, {}]]]}, {"name": "F_7_4_Relu", "class_name": "Activation", "config": {"name": "F_7_4_Relu", "trainable": true, "activation": "relu"}, "inbound_nodes": [[["F_7_4", 0, 0, {}]]]}, {"name": "RDB_Concat_7_4", "class_name": "Concatenate", "config": {"name": "RDB_Concat_7_4", "trainable": true, "axis": 3}, "inbound_nodes": [[["RDB_Concat_7_3", 0, 0, {}], ["F_7_4_Relu", 0, 0, {}]]]}, {"name": "F_7_5", "class_name": "Conv2D", "config": {"name": "F_7_5", "trainable": true, "filters": 64, "kernel_size": [3, 3], "strides": [1, 1], "padding": "same", "data_format": "channels_last", "dilation_rate": [1, 1], "activation": "linear", "use_bias": true, "kernel_initializer": {"class_name": "VarianceScaling", "config": {"scale": 1.0, "mode": "fan_avg", "distribution": "uniform", "seed": null}}, "bias_initializer": {"class_name": "Zeros", "config": {}}, "kernel_regularizer": null, "bias_regularizer": null, "activity_regularizer": null, "kernel_constraint": null, "bias_constraint": null}, "inbound_nodes": [[["RDB_Concat_7_4", 0, 0, {}]]]}, {"name": "F_7_5_Relu", "class_name": "Activation", "config": {"name": "F_7_5_Relu", "trainable": true, "activation": "relu"}, "inbound_nodes": [[["F_7_5", 0, 0, {}]]]}, {"name": "RDB_Concat_7_5", "class_name": "Concatenate", "config": {"name": "RDB_Concat_7_5", "trainable": true, "axis": 3}, "inbound_nodes": [[["RDB_Concat_7_4", 0, 0, {}], ["F_7_5_Relu", 0, 0, {}]]]}, {"name": "F_7_6", "class_name": "Conv2D", "config": {"name": "F_7_6", "trainable": true, "filters": 64, "kernel_size": [3, 3], "strides": [1, 1], "padding": "same", "data_format": "channels_last", "dilation_rate": [1, 1], "activation": "linear", "use_bias": true, "kernel_initializer": {"class_name": "VarianceScaling", "config": {"scale": 1.0, "mode": "fan_avg", "distribution": "uniform", "seed": null}}, "bias_initializer": {"class_name": "Zeros", "config": {}}, "kernel_regularizer": null, "bias_regularizer": null, "activity_regularizer": null, "kernel_constraint": null, "bias_constraint": null}, "inbound_nodes": [[["RDB_Concat_7_5", 0, 0, {}]]]}, {"name": "F_7_6_Relu", "class_name": "Activation", "config": {"name": "F_7_6_Relu", "trainable": true, "activation": "relu"}, "inbound_nodes": [[["F_7_6", 0, 0, {}]]]}, {"name": "RDB_Concat_7_6", "class_name": "Concatenate", "config": {"name": "RDB_Concat_7_6", "trainable": true, "axis": 3}, "inbound_nodes": [[["RDB_Concat_7_5", 0, 0, {}], ["F_7_6_Relu", 0, 0, {}]]]}, {"name": "LFF_7", "class_name": "Conv2D", "config": {"name": "LFF_7", "trainable": true, "filters": 64, "kernel_size": [1, 1], "strides": [1, 1], "padding": "valid", "data_format": "channels_last", "dilation_rate": [1, 1], "activation": "linear", "use_bias": true, "kernel_initializer": {"class_name": "VarianceScaling", "config": {"scale": 1.0, "mode": "fan_avg", "distribution": "uniform", "seed": null}}, "bias_initializer": {"class_name": "Zeros", "config": {}}, "kernel_regularizer": null, "bias_regularizer": null, "activity_regularizer": null, "kernel_constraint": null, "bias_constraint": null}, "inbound_nodes": [[["RDB_Concat_7_6", 0, 0, {}]]]}, {"name": "LRL_7", "class_name": "Add", "config": {"name": "LRL_7", "trainable": true}, "inbound_nodes": [[["LFF_7", 0, 0, {}], ["LRL_6", 0, 0, {}]]]}, {"name": "F_8_1", "class_name": "Conv2D", "config": {"name": "F_8_1", "trainable": true, "filters": 64, "kernel_size": [3, 3], "strides": [1, 1], "padding": "same", "data_format": "channels_last", "dilation_rate": [1, 1], "activation": "linear", "use_bias": true, "kernel_initializer": {"class_name": "VarianceScaling", "config": {"scale": 1.0, "mode": "fan_avg", "distribution": "uniform", "seed": null}}, "bias_initializer": {"class_name": "Zeros", "config": {}}, "kernel_regularizer": null, "bias_regularizer": null, "activity_regularizer": null, "kernel_constraint": null, "bias_constraint": null}, "inbound_nodes": [[["LRL_7", 0, 0, {}]]]}, {"name": "F_8_1_Relu", "class_name": "Activation", "config": {"name": "F_8_1_Relu", "trainable": true, "activation": "relu"}, "inbound_nodes": [[["F_8_1", 0, 0, {}]]]}, {"name": "RDB_Concat_8_1", "class_name": "Concatenate", "config": {"name": "RDB_Concat_8_1", "trainable": true, "axis": 3}, "inbound_nodes": [[["LRL_7", 0, 0, {}], ["F_8_1_Relu", 0, 0, {}]]]}, {"name": "F_8_2", "class_name": "Conv2D", "config": {"name": "F_8_2", "trainable": true, "filters": 64, "kernel_size": [3, 3], "strides": [1, 1], "padding": "same", "data_format": "channels_last", "dilation_rate": [1, 1], "activation": "linear", "use_bias": true, "kernel_initializer": {"class_name": "VarianceScaling", "config": {"scale": 1.0, "mode": "fan_avg", "distribution": "uniform", "seed": null}}, "bias_initializer": {"class_name": "Zeros", "config": {}}, "kernel_regularizer": null, "bias_regularizer": null, "activity_regularizer": null, "kernel_constraint": null, "bias_constraint": null}, "inbound_nodes": [[["RDB_Concat_8_1", 0, 0, {}]]]}, {"name": "F_8_2_Relu", "class_name": "Activation", "config": {"name": "F_8_2_Relu", "trainable": true, "activation": "relu"}, "inbound_nodes": [[["F_8_2", 0, 0, {}]]]}, {"name": "RDB_Concat_8_2", "class_name": "Concatenate", "config": {"name": "RDB_Concat_8_2", "trainable": true, "axis": 3}, "inbound_nodes": [[["RDB_Concat_8_1", 0, 0, {}], ["F_8_2_Relu", 0, 0, {}]]]}, {"name": "F_8_3", "class_name": "Conv2D", "config": {"name": "F_8_3", "trainable": true, "filters": 64, "kernel_size": [3, 3], "strides": [1, 1], "padding": "same", "data_format": "channels_last", "dilation_rate": [1, 1], "activation": "linear", "use_bias": true, "kernel_initializer": {"class_name": "VarianceScaling", "config": {"scale": 1.0, "mode": "fan_avg", "distribution": "uniform", "seed": null}}, "bias_initializer": {"class_name": "Zeros", "config": {}}, "kernel_regularizer": null, "bias_regularizer": null, "activity_regularizer": null, "kernel_constraint": null, "bias_constraint": null}, "inbound_nodes": [[["RDB_Concat_8_2", 0, 0, {}]]]}, {"name": "F_8_3_Relu", "class_name": "Activation", "config": {"name": "F_8_3_Relu", "trainable": true, "activation": "relu"}, "inbound_nodes": [[["F_8_3", 0, 0, {}]]]}, {"name": "RDB_Concat_8_3", "class_name": "Concatenate", "config": {"name": "RDB_Concat_8_3", "trainable": true, "axis": 3}, "inbound_nodes": [[["RDB_Concat_8_2", 0, 0, {}], ["F_8_3_Relu", 0, 0, {}]]]}, {"name": "F_8_4", "class_name": "Conv2D", "config": {"name": "F_8_4", "trainable": true, "filters": 64, "kernel_size": [3, 3], "strides": [1, 1], "padding": "same", "data_format": "channels_last", "dilation_rate": [1, 1], "activation": "linear", "use_bias": true, "kernel_initializer": {"class_name": "VarianceScaling", "config": {"scale": 1.0, "mode": "fan_avg", "distribution": "uniform", "seed": null}}, "bias_initializer": {"class_name": "Zeros", "config": {}}, "kernel_regularizer": null, "bias_regularizer": null, "activity_regularizer": null, "kernel_constraint": null, "bias_constraint": null}, "inbound_nodes": [[["RDB_Concat_8_3", 0, 0, {}]]]}, {"name": "F_8_4_Relu", "class_name": "Activation", "config": {"name": "F_8_4_Relu", "trainable": true, "activation": "relu"}, "inbound_nodes": [[["F_8_4", 0, 0, {}]]]}, {"name": "RDB_Concat_8_4", "class_name": "Concatenate", "config": {"name": "RDB_Concat_8_4", "trainable": true, "axis": 3}, "inbound_nodes": [[["RDB_Concat_8_3", 0, 0, {}], ["F_8_4_Relu", 0, 0, {}]]]}, {"name": "F_8_5", "class_name": "Conv2D", "config": {"name": "F_8_5", "trainable": true, "filters": 64, "kernel_size": [3, 3], "strides": [1, 1], "padding": "same", "data_format": "channels_last", "dilation_rate": [1, 1], "activation": "linear", "use_bias": true, "kernel_initializer": {"class_name": "VarianceScaling", "config": {"scale": 1.0, "mode": "fan_avg", "distribution": "uniform", "seed": null}}, "bias_initializer": {"class_name": "Zeros", "config": {}}, "kernel_regularizer": null, "bias_regularizer": null, "activity_regularizer": null, "kernel_constraint": null, "bias_constraint": null}, "inbound_nodes": [[["RDB_Concat_8_4", 0, 0, {}]]]}, {"name": "F_8_5_Relu", "class_name": "Activation", "config": {"name": "F_8_5_Relu", "trainable": true, "activation": "relu"}, "inbound_nodes": [[["F_8_5", 0, 0, {}]]]}, {"name": "RDB_Concat_8_5", "class_name": "Concatenate", "config": {"name": "RDB_Concat_8_5", "trainable": true, "axis": 3}, "inbound_nodes": [[["RDB_Concat_8_4", 0, 0, {}], ["F_8_5_Relu", 0, 0, {}]]]}, {"name": "F_8_6", "class_name": "Conv2D", "config": {"name": "F_8_6", "trainable": true, "filters": 64, "kernel_size": [3, 3], "strides": [1, 1], "padding": "same", "data_format": "channels_last", "dilation_rate": [1, 1], "activation": "linear", "use_bias": true, "kernel_initializer": {"class_name": "VarianceScaling", "config": {"scale": 1.0, "mode": "fan_avg", "distribution": "uniform", "seed": null}}, "bias_initializer": {"class_name": "Zeros", "config": {}}, "kernel_regularizer": null, "bias_regularizer": null, "activity_regularizer": null, "kernel_constraint": null, "bias_constraint": null}, "inbound_nodes": [[["RDB_Concat_8_5", 0, 0, {}]]]}, {"name": "F_8_6_Relu", "class_name": "Activation", "config": {"name": "F_8_6_Relu", "trainable": true, "activation": "relu"}, "inbound_nodes": [[["F_8_6", 0, 0, {}]]]}, {"name": "RDB_Concat_8_6", "class_name": "Concatenate", "config": {"name": "RDB_Concat_8_6", "trainable": true, "axis": 3}, "inbound_nodes": [[["RDB_Concat_8_5", 0, 0, {}], ["F_8_6_Relu", 0, 0, {}]]]}, {"name": "LFF_8", "class_name": "Conv2D", "config": {"name": "LFF_8", "trainable": true, "filters": 64, "kernel_size": [1, 1], "strides": [1, 1], "padding": "valid", "data_format": "channels_last", "dilation_rate": [1, 1], "activation": "linear", "use_bias": true, "kernel_initializer": {"class_name": "VarianceScaling", "config": {"scale": 1.0, "mode": "fan_avg", "distribution": "uniform", "seed": null}}, "bias_initializer": {"class_name": "Zeros", "config": {}}, "kernel_regularizer": null, "bias_regularizer": null, "activity_regularizer": null, "kernel_constraint": null, "bias_constraint": null}, "inbound_nodes": [[["RDB_Concat_8_6", 0, 0, {}]]]}, {"name": "LRL_8", "class_name": "Add", "config": {"name": "LRL_8", "trainable": true}, "inbound_nodes": [[["LFF_8", 0, 0, {}], ["LRL_7", 0, 0, {}]]]}, {"name": "F_9_1", "class_name": "Conv2D", "config": {"name": "F_9_1", "trainable": true, "filters": 64, "kernel_size": [3, 3], "strides": [1, 1], "padding": "same", "data_format": "channels_last", "dilation_rate": [1, 1], "activation": "linear", "use_bias": true, "kernel_initializer": {"class_name": "VarianceScaling", "config": {"scale": 1.0, "mode": "fan_avg", "distribution": "uniform", "seed": null}}, "bias_initializer": {"class_name": "Zeros", "config": {}}, "kernel_regularizer": null, "bias_regularizer": null, "activity_regularizer": null, "kernel_constraint": null, "bias_constraint": null}, "inbound_nodes": [[["LRL_8", 0, 0, {}]]]}, {"name": "F_9_1_Relu", "class_name": "Activation", "config": {"name": "F_9_1_Relu", "trainable": true, "activation": "relu"}, "inbound_nodes": [[["F_9_1", 0, 0, {}]]]}, {"name": "RDB_Concat_9_1", "class_name": "Concatenate", "config": {"name": "RDB_Concat_9_1", "trainable": true, "axis": 3}, "inbound_nodes": [[["LRL_8", 0, 0, {}], ["F_9_1_Relu", 0, 0, {}]]]}, {"name": "F_9_2", "class_name": "Conv2D", "config": {"name": "F_9_2", "trainable": true, "filters": 64, "kernel_size": [3, 3], "strides": [1, 1], "padding": "same", "data_format": "channels_last", "dilation_rate": [1, 1], "activation": "linear", "use_bias": true, "kernel_initializer": {"class_name": "VarianceScaling", "config": {"scale": 1.0, "mode": "fan_avg", "distribution": "uniform", "seed": null}}, "bias_initializer": {"class_name": "Zeros", "config": {}}, "kernel_regularizer": null, "bias_regularizer": null, "activity_regularizer": null, "kernel_constraint": null, "bias_constraint": null}, "inbound_nodes": [[["RDB_Concat_9_1", 0, 0, {}]]]}, {"name": "F_9_2_Relu", "class_name": "Activation", "config": {"name": "F_9_2_Relu", "trainable": true, "activation": "relu"}, "inbound_nodes": [[["F_9_2", 0, 0, {}]]]}, {"name": "RDB_Concat_9_2", "class_name": "Concatenate", "config": {"name": "RDB_Concat_9_2", "trainable": true, "axis": 3}, "inbound_nodes": [[["RDB_Concat_9_1", 0, 0, {}], ["F_9_2_Relu", 0, 0, {}]]]}, {"name": "F_9_3", "class_name": "Conv2D", "config": {"name": "F_9_3", "trainable": true, "filters": 64, "kernel_size": [3, 3], "strides": [1, 1], "padding": "same", "data_format": "channels_last", "dilation_rate": [1, 1], "activation": "linear", "use_bias": true, "kernel_initializer": {"class_name": "VarianceScaling", "config": {"scale": 1.0, "mode": "fan_avg", "distribution": "uniform", "seed": null}}, "bias_initializer": {"class_name": "Zeros", "config": {}}, "kernel_regularizer": null, "bias_regularizer": null, "activity_regularizer": null, "kernel_constraint": null, "bias_constraint": null}, "inbound_nodes": [[["RDB_Concat_9_2", 0, 0, {}]]]}, {"name": "F_9_3_Relu", "class_name": "Activation", "config": {"name": "F_9_3_Relu", "trainable": true, "activation": "relu"}, "inbound_nodes": [[["F_9_3", 0, 0, {}]]]}, {"name": "RDB_Concat_9_3", "class_name": "Concatenate", "config": {"name": "RDB_Concat_9_3", "trainable": true, "axis": 3}, "inbound_nodes": [[["RDB_Concat_9_2", 0, 0, {}], ["F_9_3_Relu", 0, 0, {}]]]}, {"name": "F_9_4", "class_name": "Conv2D", "config": {"name": "F_9_4", "trainable": true, "filters": 64, "kernel_size": [3, 3], "strides": [1, 1], "padding": "same", "data_format": "channels_last", "dilation_rate": [1, 1], "activation": "linear", "use_bias": true, "kernel_initializer": {"class_name": "VarianceScaling", "config": {"scale": 1.0, "mode": "fan_avg", "distribution": "uniform", "seed": null}}, "bias_initializer": {"class_name": "Zeros", "config": {}}, "kernel_regularizer": null, "bias_regularizer": null, "activity_regularizer": null, "kernel_constraint": null, "bias_constraint": null}, "inbound_nodes": [[["RDB_Concat_9_3", 0, 0, {}]]]}, {"name": "F_9_4_Relu", "class_name": "Activation", "config": {"name": "F_9_4_Relu", "trainable": true, "activation": "relu"}, "inbound_nodes": [[["F_9_4", 0, 0, {}]]]}, {"name": "RDB_Concat_9_4", "class_name": "Concatenate", "config": {"name": "RDB_Concat_9_4", "trainable": true, "axis": 3}, "inbound_nodes": [[["RDB_Concat_9_3", 0, 0, {}], ["F_9_4_Relu", 0, 0, {}]]]}, {"name": "F_9_5", "class_name": "Conv2D", "config": {"name": "F_9_5", "trainable": true, "filters": 64, "kernel_size": [3, 3], "strides": [1, 1], "padding": "same", "data_format": "channels_last", "dilation_rate": [1, 1], "activation": "linear", "use_bias": true, "kernel_initializer": {"class_name": "VarianceScaling", "config": {"scale": 1.0, "mode": "fan_avg", "distribution": "uniform", "seed": null}}, "bias_initializer": {"class_name": "Zeros", "config": {}}, "kernel_regularizer": null, "bias_regularizer": null, "activity_regularizer": null, "kernel_constraint": null, "bias_constraint": null}, "inbound_nodes": [[["RDB_Concat_9_4", 0, 0, {}]]]}, {"name": "F_9_5_Relu", "class_name": "Activation", "config": {"name": "F_9_5_Relu", "trainable": true, "activation": "relu"}, "inbound_nodes": [[["F_9_5", 0, 0, {}]]]}, {"name": "RDB_Concat_9_5", "class_name": "Concatenate", "config": {"name": "RDB_Concat_9_5", "trainable": true, "axis": 3}, "inbound_nodes": [[["RDB_Concat_9_4", 0, 0, {}], ["F_9_5_Relu", 0, 0, {}]]]}, {"name": "F_9_6", "class_name": "Conv2D", "config": {"name": "F_9_6", "trainable": true, "filters": 64, "kernel_size": [3, 3], "strides": [1, 1], "padding": "same", "data_format": "channels_last", "dilation_rate": [1, 1], "activation": "linear", "use_bias": true, "kernel_initializer": {"class_name": "VarianceScaling", "config": {"scale": 1.0, "mode": "fan_avg", "distribution": "uniform", "seed": null}}, "bias_initializer": {"class_name": "Zeros", "config": {}}, "kernel_regularizer": null, "bias_regularizer": null, "activity_regularizer": null, "kernel_constraint": null, "bias_constraint": null}, "inbound_nodes": [[["RDB_Concat_9_5", 0, 0, {}]]]}, {"name": "F_9_6_Relu", "class_name": "Activation", "config": {"name": "F_9_6_Relu", "trainable": true, "activation": "relu"}, "inbound_nodes": [[["F_9_6", 0, 0, {}]]]}, {"name": "RDB_Concat_9_6", "class_name": "Concatenate", "config": {"name": "RDB_Concat_9_6", "trainable": true, "axis": 3}, "inbound_nodes": [[["RDB_Concat_9_5", 0, 0, {}], ["F_9_6_Relu", 0, 0, {}]]]}, {"name": "LFF_9", "class_name": "Conv2D", "config": {"name": "LFF_9", "trainable": true, "filters": 64, "kernel_size": [1, 1], "strides": [1, 1], "padding": "valid", "data_format": "channels_last", "dilation_rate": [1, 1], "activation": "linear", "use_bias": true, "kernel_initializer": {"class_name": "VarianceScaling", "config": {"scale": 1.0, "mode": "fan_avg", "distribution": "uniform", "seed": null}}, "bias_initializer": {"class_name": "Zeros", "config": {}}, "kernel_regularizer": null, "bias_regularizer": null, "activity_regularizer": null, "kernel_constraint": null, "bias_constraint": null}, "inbound_nodes": [[["RDB_Concat_9_6", 0, 0, {}]]]}, {"name": "LRL_9", "class_name": "Add", "config": {"name": "LRL_9", "trainable": true}, "inbound_nodes": [[["LFF_9", 0, 0, {}], ["LRL_8", 0, 0, {}]]]}, {"name": "F_10_1", "class_name": "Conv2D", "config": {"name": "F_10_1", "trainable": true, "filters": 64, "kernel_size": [3, 3], "strides": [1, 1], "padding": "same", "data_format": "channels_last", "dilation_rate": [1, 1], "activation": "linear", "use_bias": true, "kernel_initializer": {"class_name": "VarianceScaling", "config": {"scale": 1.0, "mode": "fan_avg", "distribution": "uniform", "seed": null}}, "bias_initializer": {"class_name": "Zeros", "config": {}}, "kernel_regularizer": null, "bias_regularizer": null, "activity_regularizer": null, "kernel_constraint": null, "bias_constraint": null}, "inbound_nodes": [[["LRL_9", 0, 0, {}]]]}, {"name": "F_10_1_Relu", "class_name": "Activation", "config": {"name": "F_10_1_Relu", "trainable": true, "activation": "relu"}, "inbound_nodes": [[["F_10_1", 0, 0, {}]]]}, {"name": "RDB_Concat_10_1", "class_name": "Concatenate", "config": {"name": "RDB_Concat_10_1", "trainable": true, "axis": 3}, "inbound_nodes": [[["LRL_9", 0, 0, {}], ["F_10_1_Relu", 0, 0, {}]]]}, {"name": "F_10_2", "class_name": "Conv2D", "config": {"name": "F_10_2", "trainable": true, "filters": 64, "kernel_size": [3, 3], "strides": [1, 1], "padding": "same", "data_format": "channels_last", "dilation_rate": [1, 1], "activation": "linear", "use_bias": true, "kernel_initializer": {"class_name": "VarianceScaling", "config": {"scale": 1.0, "mode": "fan_avg", "distribution": "uniform", "seed": null}}, "bias_initializer": {"class_name": "Zeros", "config": {}}, "kernel_regularizer": null, "bias_regularizer": null, "activity_regularizer": null, "kernel_constraint": null, "bias_constraint": null}, "inbound_nodes": [[["RDB_Concat_10_1", 0, 0, {}]]]}, {"name": "F_10_2_Relu", "class_name": "Activation", "config": {"name": "F_10_2_Relu", "trainable": true, "activation": "relu"}, "inbound_nodes": [[["F_10_2", 0, 0, {}]]]}, {"name": "RDB_Concat_10_2", "class_name": "Concatenate", "config": {"name": "RDB_Concat_10_2", "trainable": true, "axis": 3}, "inbound_nodes": [[["RDB_Concat_10_1", 0, 0, {}], ["F_10_2_Relu", 0, 0, {}]]]}, {"name": "F_10_3", "class_name": "Conv2D", "config": {"name": "F_10_3", "trainable": true, "filters": 64, "kernel_size": [3, 3], "strides": [1, 1], "padding": "same", "data_format": "channels_last", "dilation_rate": [1, 1], "activation": "linear", "use_bias": true, "kernel_initializer": {"class_name": "VarianceScaling", "config": {"scale": 1.0, "mode": "fan_avg", "distribution": "uniform", "seed": null}}, "bias_initializer": {"class_name": "Zeros", "config": {}}, "kernel_regularizer": null, "bias_regularizer": null, "activity_regularizer": null, "kernel_constraint": null, "bias_constraint": null}, "inbound_nodes": [[["RDB_Concat_10_2", 0, 0, {}]]]}, {"name": "F_10_3_Relu", "class_name": "Activation", "config": {"name": "F_10_3_Relu", "trainable": true, "activation": "relu"}, "inbound_nodes": [[["F_10_3", 0, 0, {}]]]}, {"name": "RDB_Concat_10_3", "class_name": "Concatenate", "config": {"name": "RDB_Concat_10_3", "trainable": true, "axis": 3}, "inbound_nodes": [[["RDB_Concat_10_2", 0, 0, {}], ["F_10_3_Relu", 0, 0, {}]]]}, {"name": "F_10_4", "class_name": "Conv2D", "config": {"name": "F_10_4", "trainable": true, "filters": 64, "kernel_size": [3, 3], "strides": [1, 1], "padding": "same", "data_format": "channels_last", "dilation_rate": [1, 1], "activation": "linear", "use_bias": true, "kernel_initializer": {"class_name": "VarianceScaling", "config": {"scale": 1.0, "mode": "fan_avg", "distribution": "uniform", "seed": null}}, "bias_initializer": {"class_name": "Zeros", "config": {}}, "kernel_regularizer": null, "bias_regularizer": null, "activity_regularizer": null, "kernel_constraint": null, "bias_constraint": null}, "inbound_nodes": [[["RDB_Concat_10_3", 0, 0, {}]]]}, {"name": "F_10_4_Relu", "class_name": "Activation", "config": {"name": "F_10_4_Relu", "trainable": true, "activation": "relu"}, "inbound_nodes": [[["F_10_4", 0, 0, {}]]]}, {"name": "RDB_Concat_10_4", "class_name": "Concatenate", "config": {"name": "RDB_Concat_10_4", "trainable": true, "axis": 3}, "inbound_nodes": [[["RDB_Concat_10_3", 0, 0, {}], ["F_10_4_Relu", 0, 0, {}]]]}, {"name": "F_10_5", "class_name": "Conv2D", "config": {"name": "F_10_5", "trainable": true, "filters": 64, "kernel_size": [3, 3], "strides": [1, 1], "padding": "same", "data_format": "channels_last", "dilation_rate": [1, 1], "activation": "linear", "use_bias": true, "kernel_initializer": {"class_name": "VarianceScaling", "config": {"scale": 1.0, "mode": "fan_avg", "distribution": "uniform", "seed": null}}, "bias_initializer": {"class_name": "Zeros", "config": {}}, "kernel_regularizer": null, "bias_regularizer": null, "activity_regularizer": null, "kernel_constraint": null, "bias_constraint": null}, "inbound_nodes": [[["RDB_Concat_10_4", 0, 0, {}]]]}, {"name": "F_10_5_Relu", "class_name": "Activation", "config": {"name": "F_10_5_Relu", "trainable": true, "activation": "relu"}, "inbound_nodes": [[["F_10_5", 0, 0, {}]]]}, {"name": "RDB_Concat_10_5", "class_name": "Concatenate", "config": {"name": "RDB_Concat_10_5", "trainable": true, "axis": 3}, "inbound_nodes": [[["RDB_Concat_10_4", 0, 0, {}], ["F_10_5_Relu", 0, 0, {}]]]}, {"name": "F_10_6", "class_name": "Conv2D", "config": {"name": "F_10_6", "trainable": true, "filters": 64, "kernel_size": [3, 3], "strides": [1, 1], "padding": "same", "data_format": "channels_last", "dilation_rate": [1, 1], "activation": "linear", "use_bias": true, "kernel_initializer": {"class_name": "VarianceScaling", "config": {"scale": 1.0, "mode": "fan_avg", "distribution": "uniform", "seed": null}}, "bias_initializer": {"class_name": "Zeros", "config": {}}, "kernel_regularizer": null, "bias_regularizer": null, "activity_regularizer": null, "kernel_constraint": null, "bias_constraint": null}, "inbound_nodes": [[["RDB_Concat_10_5", 0, 0, {}]]]}, {"name": "F_10_6_Relu", "class_name": "Activation", "config": {"name": "F_10_6_Relu", "trainable": true, "activation": "relu"}, "inbound_nodes": [[["F_10_6", 0, 0, {}]]]}, {"name": "RDB_Concat_10_6", "class_name": "Concatenate", "config": {"name": "RDB_Concat_10_6", "trainable": true, "axis": 3}, "inbound_nodes": [[["RDB_Concat_10_5", 0, 0, {}], ["F_10_6_Relu", 0, 0, {}]]]}, {"name": "LFF_10", "class_name": "Conv2D", "config": {"name": "LFF_10", "trainable": true, "filters": 64, "kernel_size": [1, 1], "strides": [1, 1], "padding": "valid", "data_format": "channels_last", "dilation_rate": [1, 1], "activation": "linear", "use_bias": true, "kernel_initializer": {"class_name": "VarianceScaling", "config": {"scale": 1.0, "mode": "fan_avg", "distribution": "uniform", "seed": null}}, "bias_initializer": {"class_name": "Zeros", "config": {}}, "kernel_regularizer": null, "bias_regularizer": null, "activity_regularizer": null, "kernel_constraint": null, "bias_constraint": null}, "inbound_nodes": [[["RDB_Concat_10_6", 0, 0, {}]]]}, {"name": "LRL_10", "class_name": "Add", "config": {"name": "LRL_10", "trainable": true}, "inbound_nodes": [[["LFF_10", 0, 0, {}], ["LRL_9", 0, 0, {}]]]}, {"name": "F_11_1", "class_name": "Conv2D", "config": {"name": "F_11_1", "trainable": true, "filters": 64, "kernel_size": [3, 3], "strides": [1, 1], "padding": "same", "data_format": "channels_last", "dilation_rate": [1, 1], "activation": "linear", "use_bias": true, "kernel_initializer": {"class_name": "VarianceScaling", "config": {"scale": 1.0, "mode": "fan_avg", "distribution": "uniform", "seed": null}}, "bias_initializer": {"class_name": "Zeros", "config": {}}, "kernel_regularizer": null, "bias_regularizer": null, "activity_regularizer": null, "kernel_constraint": null, "bias_constraint": null}, "inbound_nodes": [[["LRL_10", 0, 0, {}]]]}, {"name": "F_11_1_Relu", "class_name": "Activation", "config": {"name": "F_11_1_Relu", "trainable": true, "activation": "relu"}, "inbound_nodes": [[["F_11_1", 0, 0, {}]]]}, {"name": "RDB_Concat_11_1", "class_name": "Concatenate", "config": {"name": "RDB_Concat_11_1", "trainable": true, "axis": 3}, "inbound_nodes": [[["LRL_10", 0, 0, {}], ["F_11_1_Relu", 0, 0, {}]]]}, {"name": "F_11_2", "class_name": "Conv2D", "config": {"name": "F_11_2", "trainable": true, "filters": 64, "kernel_size": [3, 3], "strides": [1, 1], "padding": "same", "data_format": "channels_last", "dilation_rate": [1, 1], "activation": "linear", "use_bias": true, "kernel_initializer": {"class_name": "VarianceScaling", "config": {"scale": 1.0, "mode": "fan_avg", "distribution": "uniform", "seed": null}}, "bias_initializer": {"class_name": "Zeros", "config": {}}, "kernel_regularizer": null, "bias_regularizer": null, "activity_regularizer": null, "kernel_constraint": null, "bias_constraint": null}, "inbound_nodes": [[["RDB_Concat_11_1", 0, 0, {}]]]}, {"name": "F_11_2_Relu", "class_name": "Activation", "config": {"name": "F_11_2_Relu", "trainable": true, "activation": "relu"}, "inbound_nodes": [[["F_11_2", 0, 0, {}]]]}, {"name": "RDB_Concat_11_2", "class_name": "Concatenate", "config": {"name": "RDB_Concat_11_2", "trainable": true, "axis": 3}, "inbound_nodes": [[["RDB_Concat_11_1", 0, 0, {}], ["F_11_2_Relu", 0, 0, {}]]]}, {"name": "F_11_3", "class_name": "Conv2D", "config": {"name": "F_11_3", "trainable": true, "filters": 64, "kernel_size": [3, 3], "strides": [1, 1], "padding": "same", "data_format": "channels_last", "dilation_rate": [1, 1], "activation": "linear", "use_bias": true, "kernel_initializer": {"class_name": "VarianceScaling", "config": {"scale": 1.0, "mode": "fan_avg", "distribution": "uniform", "seed": null}}, "bias_initializer": {"class_name": "Zeros", "config": {}}, "kernel_regularizer": null, "bias_regularizer": null, "activity_regularizer": null, "kernel_constraint": null, "bias_constraint": null}, "inbound_nodes": [[["RDB_Concat_11_2", 0, 0, {}]]]}, {"name": "F_11_3_Relu", "class_name": "Activation", "config": {"name": "F_11_3_Relu", "trainable": true, "activation": "relu"}, "inbound_nodes": [[["F_11_3", 0, 0, {}]]]}, {"name": "RDB_Concat_11_3", "class_name": "Concatenate", "config": {"name": "RDB_Concat_11_3", "trainable": true, "axis": 3}, "inbound_nodes": [[["RDB_Concat_11_2", 0, 0, {}], ["F_11_3_Relu", 0, 0, {}]]]}, {"name": "F_11_4", "class_name": "Conv2D", "config": {"name": "F_11_4", "trainable": true, "filters": 64, "kernel_size": [3, 3], "strides": [1, 1], "padding": "same", "data_format": "channels_last", "dilation_rate": [1, 1], "activation": "linear", "use_bias": true, "kernel_initializer": {"class_name": "VarianceScaling", "config": {"scale": 1.0, "mode": "fan_avg", "distribution": "uniform", "seed": null}}, "bias_initializer": {"class_name": "Zeros", "config": {}}, "kernel_regularizer": null, "bias_regularizer": null, "activity_regularizer": null, "kernel_constraint": null, "bias_constraint": null}, "inbound_nodes": [[["RDB_Concat_11_3", 0, 0, {}]]]}, {"name": "F_11_4_Relu", "class_name": "Activation", "config": {"name": "F_11_4_Relu", "trainable": true, "activation": "relu"}, "inbound_nodes": [[["F_11_4", 0, 0, {}]]]}, {"name": "RDB_Concat_11_4", "class_name": "Concatenate", "config": {"name": "RDB_Concat_11_4", "trainable": true, "axis": 3}, "inbound_nodes": [[["RDB_Concat_11_3", 0, 0, {}], ["F_11_4_Relu", 0, 0, {}]]]}, {"name": "F_11_5", "class_name": "Conv2D", "config": {"name": "F_11_5", "trainable": true, "filters": 64, "kernel_size": [3, 3], "strides": [1, 1], "padding": "same", "data_format": "channels_last", "dilation_rate": [1, 1], "activation": "linear", "use_bias": true, "kernel_initializer": {"class_name": "VarianceScaling", "config": {"scale": 1.0, "mode": "fan_avg", "distribution": "uniform", "seed": null}}, "bias_initializer": {"class_name": "Zeros", "config": {}}, "kernel_regularizer": null, "bias_regularizer": null, "activity_regularizer": null, "kernel_constraint": null, "bias_constraint": null}, "inbound_nodes": [[["RDB_Concat_11_4", 0, 0, {}]]]}, {"name": "F_11_5_Relu", "class_name": "Activation", "config": {"name": "F_11_5_Relu", "trainable": true, "activation": "relu"}, "inbound_nodes": [[["F_11_5", 0, 0, {}]]]}, {"name": "RDB_Concat_11_5", "class_name": "Concatenate", "config": {"name": "RDB_Concat_11_5", "trainable": true, "axis": 3}, "inbound_nodes": [[["RDB_Concat_11_4", 0, 0, {}], ["F_11_5_Relu", 0, 0, {}]]]}, {"name": "F_11_6", "class_name": "Conv2D", "config": {"name": "F_11_6", "trainable": true, "filters": 64, "kernel_size": [3, 3], "strides": [1, 1], "padding": "same", "data_format": "channels_last", "dilation_rate": [1, 1], "activation": "linear", "use_bias": true, "kernel_initializer": {"class_name": "VarianceScaling", "config": {"scale": 1.0, "mode": "fan_avg", "distribution": "uniform", "seed": null}}, "bias_initializer": {"class_name": "Zeros", "config": {}}, "kernel_regularizer": null, "bias_regularizer": null, "activity_regularizer": null, "kernel_constraint": null, "bias_constraint": null}, "inbound_nodes": [[["RDB_Concat_11_5", 0, 0, {}]]]}, {"name": "F_11_6_Relu", "class_name": "Activation", "config": {"name": "F_11_6_Relu", "trainable": true, "activation": "relu"}, "inbound_nodes": [[["F_11_6", 0, 0, {}]]]}, {"name": "RDB_Concat_11_6", "class_name": "Concatenate", "config": {"name": "RDB_Concat_11_6", "trainable": true, "axis": 3}, "inbound_nodes": [[["RDB_Concat_11_5", 0, 0, {}], ["F_11_6_Relu", 0, 0, {}]]]}, {"name": "LFF_11", "class_name": "Conv2D", "config": {"name": "LFF_11", "trainable": true, "filters": 64, "kernel_size": [1, 1], "strides": [1, 1], "padding": "valid", "data_format": "channels_last", "dilation_rate": [1, 1], "activation": "linear", "use_bias": true, "kernel_initializer": {"class_name": "VarianceScaling", "config": {"scale": 1.0, "mode": "fan_avg", "distribution": "uniform", "seed": null}}, "bias_initializer": {"class_name": "Zeros", "config": {}}, "kernel_regularizer": null, "bias_regularizer": null, "activity_regularizer": null, "kernel_constraint": null, "bias_constraint": null}, "inbound_nodes": [[["RDB_Concat_11_6", 0, 0, {}]]]}, {"name": "LRL_11", "class_name": "Add", "config": {"name": "LRL_11", "trainable": true}, "inbound_nodes": [[["LFF_11", 0, 0, {}], ["LRL_10", 0, 0, {}]]]}, {"name": "F_12_1", "class_name": "Conv2D", "config": {"name": "F_12_1", "trainable": true, "filters": 64, "kernel_size": [3, 3], "strides": [1, 1], "padding": "same", "data_format": "channels_last", "dilation_rate": [1, 1], "activation": "linear", "use_bias": true, "kernel_initializer": {"class_name": "VarianceScaling", "config": {"scale": 1.0, "mode": "fan_avg", "distribution": "uniform", "seed": null}}, "bias_initializer": {"class_name": "Zeros", "config": {}}, "kernel_regularizer": null, "bias_regularizer": null, "activity_regularizer": null, "kernel_constraint": null, "bias_constraint": null}, "inbound_nodes": [[["LRL_11", 0, 0, {}]]]}, {"name": "F_12_1_Relu", "class_name": "Activation", "config": {"name": "F_12_1_Relu", "trainable": true, "activation": "relu"}, "inbound_nodes": [[["F_12_1", 0, 0, {}]]]}, {"name": "RDB_Concat_12_1", "class_name": "Concatenate", "config": {"name": "RDB_Concat_12_1", "trainable": true, "axis": 3}, "inbound_nodes": [[["LRL_11", 0, 0, {}], ["F_12_1_Relu", 0, 0, {}]]]}, {"name": "F_12_2", "class_name": "Conv2D", "config": {"name": "F_12_2", "trainable": true, "filters": 64, "kernel_size": [3, 3], "strides": [1, 1], "padding": "same", "data_format": "channels_last", "dilation_rate": [1, 1], "activation": "linear", "use_bias": true, "kernel_initializer": {"class_name": "VarianceScaling", "config": {"scale": 1.0, "mode": "fan_avg", "distribution": "uniform", "seed": null}}, "bias_initializer": {"class_name": "Zeros", "config": {}}, "kernel_regularizer": null, "bias_regularizer": null, "activity_regularizer": null, "kernel_constraint": null, "bias_constraint": null}, "inbound_nodes": [[["RDB_Concat_12_1", 0, 0, {}]]]}, {"name": "F_12_2_Relu", "class_name": "Activation", "config": {"name": "F_12_2_Relu", "trainable": true, "activation": "relu"}, "inbound_nodes": [[["F_12_2", 0, 0, {}]]]}, {"name": "RDB_Concat_12_2", "class_name": "Concatenate", "config": {"name": "RDB_Concat_12_2", "trainable": true, "axis": 3}, "inbound_nodes": [[["RDB_Concat_12_1", 0, 0, {}], ["F_12_2_Relu", 0, 0, {}]]]}, {"name": "F_12_3", "class_name": "Conv2D", "config": {"name": "F_12_3", "trainable": true, "filters": 64, "kernel_size": [3, 3], "strides": [1, 1], "padding": "same", "data_format": "channels_last", "dilation_rate": [1, 1], "activation": "linear", "use_bias": true, "kernel_initializer": {"class_name": "VarianceScaling", "config": {"scale": 1.0, "mode": "fan_avg", "distribution": "uniform", "seed": null}}, "bias_initializer": {"class_name": "Zeros", "config": {}}, "kernel_regularizer": null, "bias_regularizer": null, "activity_regularizer": null, "kernel_constraint": null, "bias_constraint": null}, "inbound_nodes": [[["RDB_Concat_12_2", 0, 0, {}]]]}, {"name": "F_12_3_Relu", "class_name": "Activation", "config": {"name": "F_12_3_Relu", "trainable": true, "activation": "relu"}, "inbound_nodes": [[["F_12_3", 0, 0, {}]]]}, {"name": "RDB_Concat_12_3", "class_name": "Concatenate", "config": {"name": "RDB_Concat_12_3", "trainable": true, "axis": 3}, "inbound_nodes": [[["RDB_Concat_12_2", 0, 0, {}], ["F_12_3_Relu", 0, 0, {}]]]}, {"name": "F_12_4", "class_name": "Conv2D", "config": {"name": "F_12_4", "trainable": true, "filters": 64, "kernel_size": [3, 3], "strides": [1, 1], "padding": "same", "data_format": "channels_last", "dilation_rate": [1, 1], "activation": "linear", "use_bias": true, "kernel_initializer": {"class_name": "VarianceScaling", "config": {"scale": 1.0, "mode": "fan_avg", "distribution": "uniform", "seed": null}}, "bias_initializer": {"class_name": "Zeros", "config": {}}, "kernel_regularizer": null, "bias_regularizer": null, "activity_regularizer": null, "kernel_constraint": null, "bias_constraint": null}, "inbound_nodes": [[["RDB_Concat_12_3", 0, 0, {}]]]}, {"name": "F_12_4_Relu", "class_name": "Activation", "config": {"name": "F_12_4_Relu", "trainable": true, "activation": "relu"}, "inbound_nodes": [[["F_12_4", 0, 0, {}]]]}, {"name": "RDB_Concat_12_4", "class_name": "Concatenate", "config": {"name": "RDB_Concat_12_4", "trainable": true, "axis": 3}, "inbound_nodes": [[["RDB_Concat_12_3", 0, 0, {}], ["F_12_4_Relu", 0, 0, {}]]]}, {"name": "F_12_5", "class_name": "Conv2D", "config": {"name": "F_12_5", "trainable": true, "filters": 64, "kernel_size": [3, 3], "strides": [1, 1], "padding": "same", "data_format": "channels_last", "dilation_rate": [1, 1], "activation": "linear", "use_bias": true, "kernel_initializer": {"class_name": "VarianceScaling", "config": {"scale": 1.0, "mode": "fan_avg", "distribution": "uniform", "seed": null}}, "bias_initializer": {"class_name": "Zeros", "config": {}}, "kernel_regularizer": null, "bias_regularizer": null, "activity_regularizer": null, "kernel_constraint": null, "bias_constraint": null}, "inbound_nodes": [[["RDB_Concat_12_4", 0, 0, {}]]]}, {"name": "F_12_5_Relu", "class_name": "Activation", "config": {"name": "F_12_5_Relu", "trainable": true, "activation": "relu"}, "inbound_nodes": [[["F_12_5", 0, 0, {}]]]}, {"name": "RDB_Concat_12_5", "class_name": "Concatenate", "config": {"name": "RDB_Concat_12_5", "trainable": true, "axis": 3}, "inbound_nodes": [[["RDB_Concat_12_4", 0, 0, {}], ["F_12_5_Relu", 0, 0, {}]]]}, {"name": "F_12_6", "class_name": "Conv2D", "config": {"name": "F_12_6", "trainable": true, "filters": 64, "kernel_size": [3, 3], "strides": [1, 1], "padding": "same", "data_format": "channels_last", "dilation_rate": [1, 1], "activation": "linear", "use_bias": true, "kernel_initializer": {"class_name": "VarianceScaling", "config": {"scale": 1.0, "mode": "fan_avg", "distribution": "uniform", "seed": null}}, "bias_initializer": {"class_name": "Zeros", "config": {}}, "kernel_regularizer": null, "bias_regularizer": null, "activity_regularizer": null, "kernel_constraint": null, "bias_constraint": null}, "inbound_nodes": [[["RDB_Concat_12_5", 0, 0, {}]]]}, {"name": "F_12_6_Relu", "class_name": "Activation", "config": {"name": "F_12_6_Relu", "trainable": true, "activation": "relu"}, "inbound_nodes": [[["F_12_6", 0, 0, {}]]]}, {"name": "RDB_Concat_12_6", "class_name": "Concatenate", "config": {"name": "RDB_Concat_12_6", "trainable": true, "axis": 3}, "inbound_nodes": [[["RDB_Concat_12_5", 0, 0, {}], ["F_12_6_Relu", 0, 0, {}]]]}, {"name": "LFF_12", "class_name": "Conv2D", "config": {"name": "LFF_12", "trainable": true, "filters": 64, "kernel_size": [1, 1], "strides": [1, 1], "padding": "valid", "data_format": "channels_last", "dilation_rate": [1, 1], "activation": "linear", "use_bias": true, "kernel_initializer": {"class_name": "VarianceScaling", "config": {"scale": 1.0, "mode": "fan_avg", "distribution": "uniform", "seed": null}}, "bias_initializer": {"class_name": "Zeros", "config": {}}, "kernel_regularizer": null, "bias_regularizer": null, "activity_regularizer": null, "kernel_constraint": null, "bias_constraint": null}, "inbound_nodes": [[["RDB_Concat_12_6", 0, 0, {}]]]}, {"name": "LRL_12", "class_name": "Add", "config": {"name": "LRL_12", "trainable": true}, "inbound_nodes": [[["LFF_12", 0, 0, {}], ["LRL_11", 0, 0, {}]]]}, {"name": "F_13_1", "class_name": "Conv2D", "config": {"name": "F_13_1", "trainable": true, "filters": 64, "kernel_size": [3, 3], "strides": [1, 1], "padding": "same", "data_format": "channels_last", "dilation_rate": [1, 1], "activation": "linear", "use_bias": true, "kernel_initializer": {"class_name": "VarianceScaling", "config": {"scale": 1.0, "mode": "fan_avg", "distribution": "uniform", "seed": null}}, "bias_initializer": {"class_name": "Zeros", "config": {}}, "kernel_regularizer": null, "bias_regularizer": null, "activity_regularizer": null, "kernel_constraint": null, "bias_constraint": null}, "inbound_nodes": [[["LRL_12", 0, 0, {}]]]}, {"name": "F_13_1_Relu", "class_name": "Activation", "config": {"name": "F_13_1_Relu", "trainable": true, "activation": "relu"}, "inbound_nodes": [[["F_13_1", 0, 0, {}]]]}, {"name": "RDB_Concat_13_1", "class_name": "Concatenate", "config": {"name": "RDB_Concat_13_1", "trainable": true, "axis": 3}, "inbound_nodes": [[["LRL_12", 0, 0, {}], ["F_13_1_Relu", 0, 0, {}]]]}, {"name": "F_13_2", "class_name": "Conv2D", "config": {"name": "F_13_2", "trainable": true, "filters": 64, "kernel_size": [3, 3], "strides": [1, 1], "padding": "same", "data_format": "channels_last", "dilation_rate": [1, 1], "activation": "linear", "use_bias": true, "kernel_initializer": {"class_name": "VarianceScaling", "config": {"scale": 1.0, "mode": "fan_avg", "distribution": "uniform", "seed": null}}, "bias_initializer": {"class_name": "Zeros", "config": {}}, "kernel_regularizer": null, "bias_regularizer": null, "activity_regularizer": null, "kernel_constraint": null, "bias_constraint": null}, "inbound_nodes": [[["RDB_Concat_13_1", 0, 0, {}]]]}, {"name": "F_13_2_Relu", "class_name": "Activation", "config": {"name": "F_13_2_Relu", "trainable": true, "activation": "relu"}, "inbound_nodes": [[["F_13_2", 0, 0, {}]]]}, {"name": "RDB_Concat_13_2", "class_name": "Concatenate", "config": {"name": "RDB_Concat_13_2", "trainable": true, "axis": 3}, "inbound_nodes": [[["RDB_Concat_13_1", 0, 0, {}], ["F_13_2_Relu", 0, 0, {}]]]}, {"name": "F_13_3", "class_name": "Conv2D", "config": {"name": "F_13_3", "trainable": true, "filters": 64, "kernel_size": [3, 3], "strides": [1, 1], "padding": "same", "data_format": "channels_last", "dilation_rate": [1, 1], "activation": "linear", "use_bias": true, "kernel_initializer": {"class_name": "VarianceScaling", "config": {"scale": 1.0, "mode": "fan_avg", "distribution": "uniform", "seed": null}}, "bias_initializer": {"class_name": "Zeros", "config": {}}, "kernel_regularizer": null, "bias_regularizer": null, "activity_regularizer": null, "kernel_constraint": null, "bias_constraint": null}, "inbound_nodes": [[["RDB_Concat_13_2", 0, 0, {}]]]}, {"name": "F_13_3_Relu", "class_name": "Activation", "config": {"name": "F_13_3_Relu", "trainable": true, "activation": "relu"}, "inbound_nodes": [[["F_13_3", 0, 0, {}]]]}, {"name": "RDB_Concat_13_3", "class_name": "Concatenate", "config": {"name": "RDB_Concat_13_3", "trainable": true, "axis": 3}, "inbound_nodes": [[["RDB_Concat_13_2", 0, 0, {}], ["F_13_3_Relu", 0, 0, {}]]]}, {"name": "F_13_4", "class_name": "Conv2D", "config": {"name": "F_13_4", "trainable": true, "filters": 64, "kernel_size": [3, 3], "strides": [1, 1], "padding": "same", "data_format": "channels_last", "dilation_rate": [1, 1], "activation": "linear", "use_bias": true, "kernel_initializer": {"class_name": "VarianceScaling", "config": {"scale": 1.0, "mode": "fan_avg", "distribution": "uniform", "seed": null}}, "bias_initializer": {"class_name": "Zeros", "config": {}}, "kernel_regularizer": null, "bias_regularizer": null, "activity_regularizer": null, "kernel_constraint": null, "bias_constraint": null}, "inbound_nodes": [[["RDB_Concat_13_3", 0, 0, {}]]]}, {"name": "F_13_4_Relu", "class_name": "Activation", "config": {"name": "F_13_4_Relu", "trainable": true, "activation": "relu"}, "inbound_nodes": [[["F_13_4", 0, 0, {}]]]}, {"name": "RDB_Concat_13_4", "class_name": "Concatenate", "config": {"name": "RDB_Concat_13_4", "trainable": true, "axis": 3}, "inbound_nodes": [[["RDB_Concat_13_3", 0, 0, {}], ["F_13_4_Relu", 0, 0, {}]]]}, {"name": "F_13_5", "class_name": "Conv2D", "config": {"name": "F_13_5", "trainable": true, "filters": 64, "kernel_size": [3, 3], "strides": [1, 1], "padding": "same", "data_format": "channels_last", "dilation_rate": [1, 1], "activation": "linear", "use_bias": true, "kernel_initializer": {"class_name": "VarianceScaling", "config": {"scale": 1.0, "mode": "fan_avg", "distribution": "uniform", "seed": null}}, "bias_initializer": {"class_name": "Zeros", "config": {}}, "kernel_regularizer": null, "bias_regularizer": null, "activity_regularizer": null, "kernel_constraint": null, "bias_constraint": null}, "inbound_nodes": [[["RDB_Concat_13_4", 0, 0, {}]]]}, {"name": "F_13_5_Relu", "class_name": "Activation", "config": {"name": "F_13_5_Relu", "trainable": true, "activation": "relu"}, "inbound_nodes": [[["F_13_5", 0, 0, {}]]]}, {"name": "RDB_Concat_13_5", "class_name": "Concatenate", "config": {"name": "RDB_Concat_13_5", "trainable": true, "axis": 3}, "inbound_nodes": [[["RDB_Concat_13_4", 0, 0, {}], ["F_13_5_Relu", 0, 0, {}]]]}, {"name": "F_13_6", "class_name": "Conv2D", "config": {"name": "F_13_6", "trainable": true, "filters": 64, "kernel_size": [3, 3], "strides": [1, 1], "padding": "same", "data_format": "channels_last", "dilation_rate": [1, 1], "activation": "linear", "use_bias": true, "kernel_initializer": {"class_name": "VarianceScaling", "config": {"scale": 1.0, "mode": "fan_avg", "distribution": "uniform", "seed": null}}, "bias_initializer": {"class_name": "Zeros", "config": {}}, "kernel_regularizer": null, "bias_regularizer": null, "activity_regularizer": null, "kernel_constraint": null, "bias_constraint": null}, "inbound_nodes": [[["RDB_Concat_13_5", 0, 0, {}]]]}, {"name": "F_13_6_Relu", "class_name": "Activation", "config": {"name": "F_13_6_Relu", "trainable": true, "activation": "relu"}, "inbound_nodes": [[["F_13_6", 0, 0, {}]]]}, {"name": "RDB_Concat_13_6", "class_name": "Concatenate", "config": {"name": "RDB_Concat_13_6", "trainable": true, "axis": 3}, "inbound_nodes": [[["RDB_Concat_13_5", 0, 0, {}], ["F_13_6_Relu", 0, 0, {}]]]}, {"name": "LFF_13", "class_name": "Conv2D", "config": {"name": "LFF_13", "trainable": true, "filters": 64, "kernel_size": [1, 1], "strides": [1, 1], "padding": "valid", "data_format": "channels_last", "dilation_rate": [1, 1], "activation": "linear", "use_bias": true, "kernel_initializer": {"class_name": "VarianceScaling", "config": {"scale": 1.0, "mode": "fan_avg", "distribution": "uniform", "seed": null}}, "bias_initializer": {"class_name": "Zeros", "config": {}}, "kernel_regularizer": null, "bias_regularizer": null, "activity_regularizer": null, "kernel_constraint": null, "bias_constraint": null}, "inbound_nodes": [[["RDB_Concat_13_6", 0, 0, {}]]]}, {"name": "LRL_13", "class_name": "Add", "config": {"name": "LRL_13", "trainable": true}, "inbound_nodes": [[["LFF_13", 0, 0, {}], ["LRL_12", 0, 0, {}]]]}, {"name": "F_14_1", "class_name": "Conv2D", "config": {"name": "F_14_1", "trainable": true, "filters": 64, "kernel_size": [3, 3], "strides": [1, 1], "padding": "same", "data_format": "channels_last", "dilation_rate": [1, 1], "activation": "linear", "use_bias": true, "kernel_initializer": {"class_name": "VarianceScaling", "config": {"scale": 1.0, "mode": "fan_avg", "distribution": "uniform", "seed": null}}, "bias_initializer": {"class_name": "Zeros", "config": {}}, "kernel_regularizer": null, "bias_regularizer": null, "activity_regularizer": null, "kernel_constraint": null, "bias_constraint": null}, "inbound_nodes": [[["LRL_13", 0, 0, {}]]]}, {"name": "F_14_1_Relu", "class_name": "Activation", "config": {"name": "F_14_1_Relu", "trainable": true, "activation": "relu"}, "inbound_nodes": [[["F_14_1", 0, 0, {}]]]}, {"name": "RDB_Concat_14_1", "class_name": "Concatenate", "config": {"name": "RDB_Concat_14_1", "trainable": true, "axis": 3}, "inbound_nodes": [[["LRL_13", 0, 0, {}], ["F_14_1_Relu", 0, 0, {}]]]}, {"name": "F_14_2", "class_name": "Conv2D", "config": {"name": "F_14_2", "trainable": true, "filters": 64, "kernel_size": [3, 3], "strides": [1, 1], "padding": "same", "data_format": "channels_last", "dilation_rate": [1, 1], "activation": "linear", "use_bias": true, "kernel_initializer": {"class_name": "VarianceScaling", "config": {"scale": 1.0, "mode": "fan_avg", "distribution": "uniform", "seed": null}}, "bias_initializer": {"class_name": "Zeros", "config": {}}, "kernel_regularizer": null, "bias_regularizer": null, "activity_regularizer": null, "kernel_constraint": null, "bias_constraint": null}, "inbound_nodes": [[["RDB_Concat_14_1", 0, 0, {}]]]}, {"name": "F_14_2_Relu", "class_name": "Activation", "config": {"name": "F_14_2_Relu", "trainable": true, "activation": "relu"}, "inbound_nodes": [[["F_14_2", 0, 0, {}]]]}, {"name": "RDB_Concat_14_2", "class_name": "Concatenate", "config": {"name": "RDB_Concat_14_2", "trainable": true, "axis": 3}, "inbound_nodes": [[["RDB_Concat_14_1", 0, 0, {}], ["F_14_2_Relu", 0, 0, {}]]]}, {"name": "F_14_3", "class_name": "Conv2D", "config": {"name": "F_14_3", "trainable": true, "filters": 64, "kernel_size": [3, 3], "strides": [1, 1], "padding": "same", "data_format": "channels_last", "dilation_rate": [1, 1], "activation": "linear", "use_bias": true, "kernel_initializer": {"class_name": "VarianceScaling", "config": {"scale": 1.0, "mode": "fan_avg", "distribution": "uniform", "seed": null}}, "bias_initializer": {"class_name": "Zeros", "config": {}}, "kernel_regularizer": null, "bias_regularizer": null, "activity_regularizer": null, "kernel_constraint": null, "bias_constraint": null}, "inbound_nodes": [[["RDB_Concat_14_2", 0, 0, {}]]]}, {"name": "F_14_3_Relu", "class_name": "Activation", "config": {"name": "F_14_3_Relu", "trainable": true, "activation": "relu"}, "inbound_nodes": [[["F_14_3", 0, 0, {}]]]}, {"name": "RDB_Concat_14_3", "class_name": "Concatenate", "config": {"name": "RDB_Concat_14_3", "trainable": true, "axis": 3}, "inbound_nodes": [[["RDB_Concat_14_2", 0, 0, {}], ["F_14_3_Relu", 0, 0, {}]]]}, {"name": "F_14_4", "class_name": "Conv2D", "config": {"name": "F_14_4", "trainable": true, "filters": 64, "kernel_size": [3, 3], "strides": [1, 1], "padding": "same", "data_format": "channels_last", "dilation_rate": [1, 1], "activation": "linear", "use_bias": true, "kernel_initializer": {"class_name": "VarianceScaling", "config": {"scale": 1.0, "mode": "fan_avg", "distribution": "uniform", "seed": null}}, "bias_initializer": {"class_name": "Zeros", "config": {}}, "kernel_regularizer": null, "bias_regularizer": null, "activity_regularizer": null, "kernel_constraint": null, "bias_constraint": null}, "inbound_nodes": [[["RDB_Concat_14_3", 0, 0, {}]]]}, {"name": "F_14_4_Relu", "class_name": "Activation", "config": {"name": "F_14_4_Relu", "trainable": true, "activation": "relu"}, "inbound_nodes": [[["F_14_4", 0, 0, {}]]]}, {"name": "RDB_Concat_14_4", "class_name": "Concatenate", "config": {"name": "RDB_Concat_14_4", "trainable": true, "axis": 3}, "inbound_nodes": [[["RDB_Concat_14_3", 0, 0, {}], ["F_14_4_Relu", 0, 0, {}]]]}, {"name": "F_14_5", "class_name": "Conv2D", "config": {"name": "F_14_5", "trainable": true, "filters": 64, "kernel_size": [3, 3], "strides": [1, 1], "padding": "same", "data_format": "channels_last", "dilation_rate": [1, 1], "activation": "linear", "use_bias": true, "kernel_initializer": {"class_name": "VarianceScaling", "config": {"scale": 1.0, "mode": "fan_avg", "distribution": "uniform", "seed": null}}, "bias_initializer": {"class_name": "Zeros", "config": {}}, "kernel_regularizer": null, "bias_regularizer": null, "activity_regularizer": null, "kernel_constraint": null, "bias_constraint": null}, "inbound_nodes": [[["RDB_Concat_14_4", 0, 0, {}]]]}, {"name": "F_14_5_Relu", "class_name": "Activation", "config": {"name": "F_14_5_Relu", "trainable": true, "activation": "relu"}, "inbound_nodes": [[["F_14_5", 0, 0, {}]]]}, {"name": "RDB_Concat_14_5", "class_name": "Concatenate", "config": {"name": "RDB_Concat_14_5", "trainable": true, "axis": 3}, "inbound_nodes": [[["RDB_Concat_14_4", 0, 0, {}], ["F_14_5_Relu", 0, 0, {}]]]}, {"name": "F_14_6", "class_name": "Conv2D", "config": {"name": "F_14_6", "trainable": true, "filters": 64, "kernel_size": [3, 3], "strides": [1, 1], "padding": "same", "data_format": "channels_last", "dilation_rate": [1, 1], "activation": "linear", "use_bias": true, "kernel_initializer": {"class_name": "VarianceScaling", "config": {"scale": 1.0, "mode": "fan_avg", "distribution": "uniform", "seed": null}}, "bias_initializer": {"class_name": "Zeros", "config": {}}, "kernel_regularizer": null, "bias_regularizer": null, "activity_regularizer": null, "kernel_constraint": null, "bias_constraint": null}, "inbound_nodes": [[["RDB_Concat_14_5", 0, 0, {}]]]}, {"name": "F_14_6_Relu", "class_name": "Activation", "config": {"name": "F_14_6_Relu", "trainable": true, "activation": "relu"}, "inbound_nodes": [[["F_14_6", 0, 0, {}]]]}, {"name": "RDB_Concat_14_6", "class_name": "Concatenate", "config": {"name": "RDB_Concat_14_6", "trainable": true, "axis": 3}, "inbound_nodes": [[["RDB_Concat_14_5", 0, 0, {}], ["F_14_6_Relu", 0, 0, {}]]]}, {"name": "LFF_14", "class_name": "Conv2D", "config": {"name": "LFF_14", "trainable": true, "filters": 64, "kernel_size": [1, 1], "strides": [1, 1], "padding": "valid", "data_format": "channels_last", "dilation_rate": [1, 1], "activation": "linear", "use_bias": true, "kernel_initializer": {"class_name": "VarianceScaling", "config": {"scale": 1.0, "mode": "fan_avg", "distribution": "uniform", "seed": null}}, "bias_initializer": {"class_name": "Zeros", "config": {}}, "kernel_regularizer": null, "bias_regularizer": null, "activity_regularizer": null, "kernel_constraint": null, "bias_constraint": null}, "inbound_nodes": [[["RDB_Concat_14_6", 0, 0, {}]]]}, {"name": "LRL_14", "class_name": "Add", "config": {"name": "LRL_14", "trainable": true}, "inbound_nodes": [[["LFF_14", 0, 0, {}], ["LRL_13", 0, 0, {}]]]}, {"name": "F_15_1", "class_name": "Conv2D", "config": {"name": "F_15_1", "trainable": true, "filters": 64, "kernel_size": [3, 3], "strides": [1, 1], "padding": "same", "data_format": "channels_last", "dilation_rate": [1, 1], "activation": "linear", "use_bias": true, "kernel_initializer": {"class_name": "VarianceScaling", "config": {"scale": 1.0, "mode": "fan_avg", "distribution": "uniform", "seed": null}}, "bias_initializer": {"class_name": "Zeros", "config": {}}, "kernel_regularizer": null, "bias_regularizer": null, "activity_regularizer": null, "kernel_constraint": null, "bias_constraint": null}, "inbound_nodes": [[["LRL_14", 0, 0, {}]]]}, {"name": "F_15_1_Relu", "class_name": "Activation", "config": {"name": "F_15_1_Relu", "trainable": true, "activation": "relu"}, "inbound_nodes": [[["F_15_1", 0, 0, {}]]]}, {"name": "RDB_Concat_15_1", "class_name": "Concatenate", "config": {"name": "RDB_Concat_15_1", "trainable": true, "axis": 3}, "inbound_nodes": [[["LRL_14", 0, 0, {}], ["F_15_1_Relu", 0, 0, {}]]]}, {"name": "F_15_2", "class_name": "Conv2D", "config": {"name": "F_15_2", "trainable": true, "filters": 64, "kernel_size": [3, 3], "strides": [1, 1], "padding": "same", "data_format": "channels_last", "dilation_rate": [1, 1], "activation": "linear", "use_bias": true, "kernel_initializer": {"class_name": "VarianceScaling", "config": {"scale": 1.0, "mode": "fan_avg", "distribution": "uniform", "seed": null}}, "bias_initializer": {"class_name": "Zeros", "config": {}}, "kernel_regularizer": null, "bias_regularizer": null, "activity_regularizer": null, "kernel_constraint": null, "bias_constraint": null}, "inbound_nodes": [[["RDB_Concat_15_1", 0, 0, {}]]]}, {"name": "F_15_2_Relu", "class_name": "Activation", "config": {"name": "F_15_2_Relu", "trainable": true, "activation": "relu"}, "inbound_nodes": [[["F_15_2", 0, 0, {}]]]}, {"name": "RDB_Concat_15_2", "class_name": "Concatenate", "config": {"name": "RDB_Concat_15_2", "trainable": true, "axis": 3}, "inbound_nodes": [[["RDB_Concat_15_1", 0, 0, {}], ["F_15_2_Relu", 0, 0, {}]]]}, {"name": "F_15_3", "class_name": "Conv2D", "config": {"name": "F_15_3", "trainable": true, "filters": 64, "kernel_size": [3, 3], "strides": [1, 1], "padding": "same", "data_format": "channels_last", "dilation_rate": [1, 1], "activation": "linear", "use_bias": true, "kernel_initializer": {"class_name": "VarianceScaling", "config": {"scale": 1.0, "mode": "fan_avg", "distribution": "uniform", "seed": null}}, "bias_initializer": {"class_name": "Zeros", "config": {}}, "kernel_regularizer": null, "bias_regularizer": null, "activity_regularizer": null, "kernel_constraint": null, "bias_constraint": null}, "inbound_nodes": [[["RDB_Concat_15_2", 0, 0, {}]]]}, {"name": "F_15_3_Relu", "class_name": "Activation", "config": {"name": "F_15_3_Relu", "trainable": true, "activation": "relu"}, "inbound_nodes": [[["F_15_3", 0, 0, {}]]]}, {"name": "RDB_Concat_15_3", "class_name": "Concatenate", "config": {"name": "RDB_Concat_15_3", "trainable": true, "axis": 3}, "inbound_nodes": [[["RDB_Concat_15_2", 0, 0, {}], ["F_15_3_Relu", 0, 0, {}]]]}, {"name": "F_15_4", "class_name": "Conv2D", "config": {"name": "F_15_4", "trainable": true, "filters": 64, "kernel_size": [3, 3], "strides": [1, 1], "padding": "same", "data_format": "channels_last", "dilation_rate": [1, 1], "activation": "linear", "use_bias": true, "kernel_initializer": {"class_name": "VarianceScaling", "config": {"scale": 1.0, "mode": "fan_avg", "distribution": "uniform", "seed": null}}, "bias_initializer": {"class_name": "Zeros", "config": {}}, "kernel_regularizer": null, "bias_regularizer": null, "activity_regularizer": null, "kernel_constraint": null, "bias_constraint": null}, "inbound_nodes": [[["RDB_Concat_15_3", 0, 0, {}]]]}, {"name": "F_15_4_Relu", "class_name": "Activation", "config": {"name": "F_15_4_Relu", "trainable": true, "activation": "relu"}, "inbound_nodes": [[["F_15_4", 0, 0, {}]]]}, {"name": "RDB_Concat_15_4", "class_name": "Concatenate", "config": {"name": "RDB_Concat_15_4", "trainable": true, "axis": 3}, "inbound_nodes": [[["RDB_Concat_15_3", 0, 0, {}], ["F_15_4_Relu", 0, 0, {}]]]}, {"name": "F_15_5", "class_name": "Conv2D", "config": {"name": "F_15_5", "trainable": true, "filters": 64, "kernel_size": [3, 3], "strides": [1, 1], "padding": "same", "data_format": "channels_last", "dilation_rate": [1, 1], "activation": "linear", "use_bias": true, "kernel_initializer": {"class_name": "VarianceScaling", "config": {"scale": 1.0, "mode": "fan_avg", "distribution": "uniform", "seed": null}}, "bias_initializer": {"class_name": "Zeros", "config": {}}, "kernel_regularizer": null, "bias_regularizer": null, "activity_regularizer": null, "kernel_constraint": null, "bias_constraint": null}, "inbound_nodes": [[["RDB_Concat_15_4", 0, 0, {}]]]}, {"name": "F_15_5_Relu", "class_name": "Activation", "config": {"name": "F_15_5_Relu", "trainable": true, "activation": "relu"}, "inbound_nodes": [[["F_15_5", 0, 0, {}]]]}, {"name": "RDB_Concat_15_5", "class_name": "Concatenate", "config": {"name": "RDB_Concat_15_5", "trainable": true, "axis": 3}, "inbound_nodes": [[["RDB_Concat_15_4", 0, 0, {}], ["F_15_5_Relu", 0, 0, {}]]]}, {"name": "F_15_6", "class_name": "Conv2D", "config": {"name": "F_15_6", "trainable": true, "filters": 64, "kernel_size": [3, 3], "strides": [1, 1], "padding": "same", "data_format": "channels_last", "dilation_rate": [1, 1], "activation": "linear", "use_bias": true, "kernel_initializer": {"class_name": "VarianceScaling", "config": {"scale": 1.0, "mode": "fan_avg", "distribution": "uniform", "seed": null}}, "bias_initializer": {"class_name": "Zeros", "config": {}}, "kernel_regularizer": null, "bias_regularizer": null, "activity_regularizer": null, "kernel_constraint": null, "bias_constraint": null}, "inbound_nodes": [[["RDB_Concat_15_5", 0, 0, {}]]]}, {"name": "F_15_6_Relu", "class_name": "Activation", "config": {"name": "F_15_6_Relu", "trainable": true, "activation": "relu"}, "inbound_nodes": [[["F_15_6", 0, 0, {}]]]}, {"name": "RDB_Concat_15_6", "class_name": "Concatenate", "config": {"name": "RDB_Concat_15_6", "trainable": true, "axis": 3}, "inbound_nodes": [[["RDB_Concat_15_5", 0, 0, {}], ["F_15_6_Relu", 0, 0, {}]]]}, {"name": "LFF_15", "class_name": "Conv2D", "config": {"name": "LFF_15", "trainable": true, "filters": 64, "kernel_size": [1, 1], "strides": [1, 1], "padding": "valid", "data_format": "channels_last", "dilation_rate": [1, 1], "activation": "linear", "use_bias": true, "kernel_initializer": {"class_name": "VarianceScaling", "config": {"scale": 1.0, "mode": "fan_avg", "distribution": "uniform", "seed": null}}, "bias_initializer": {"class_name": "Zeros", "config": {}}, "kernel_regularizer": null, "bias_regularizer": null, "activity_regularizer": null, "kernel_constraint": null, "bias_constraint": null}, "inbound_nodes": [[["RDB_Concat_15_6", 0, 0, {}]]]}, {"name": "LRL_15", "class_name": "Add", "config": {"name": "LRL_15", "trainable": true}, "inbound_nodes": [[["LFF_15", 0, 0, {}], ["LRL_14", 0, 0, {}]]]}, {"name": "F_16_1", "class_name": "Conv2D", "config": {"name": "F_16_1", "trainable": true, "filters": 64, "kernel_size": [3, 3], "strides": [1, 1], "padding": "same", "data_format": "channels_last", "dilation_rate": [1, 1], "activation": "linear", "use_bias": true, "kernel_initializer": {"class_name": "VarianceScaling", "config": {"scale": 1.0, "mode": "fan_avg", "distribution": "uniform", "seed": null}}, "bias_initializer": {"class_name": "Zeros", "config": {}}, "kernel_regularizer": null, "bias_regularizer": null, "activity_regularizer": null, "kernel_constraint": null, "bias_constraint": null}, "inbound_nodes": [[["LRL_15", 0, 0, {}]]]}, {"name": "F_16_1_Relu", "class_name": "Activation", "config": {"name": "F_16_1_Relu", "trainable": true, "activation": "relu"}, "inbound_nodes": [[["F_16_1", 0, 0, {}]]]}, {"name": "RDB_Concat_16_1", "class_name": "Concatenate", "config": {"name": "RDB_Concat_16_1", "trainable": true, "axis": 3}, "inbound_nodes": [[["LRL_15", 0, 0, {}], ["F_16_1_Relu", 0, 0, {}]]]}, {"name": "F_16_2", "class_name": "Conv2D", "config": {"name": "F_16_2", "trainable": true, "filters": 64, "kernel_size": [3, 3], "strides": [1, 1], "padding": "same", "data_format": "channels_last", "dilation_rate": [1, 1], "activation": "linear", "use_bias": true, "kernel_initializer": {"class_name": "VarianceScaling", "config": {"scale": 1.0, "mode": "fan_avg", "distribution": "uniform", "seed": null}}, "bias_initializer": {"class_name": "Zeros", "config": {}}, "kernel_regularizer": null, "bias_regularizer": null, "activity_regularizer": null, "kernel_constraint": null, "bias_constraint": null}, "inbound_nodes": [[["RDB_Concat_16_1", 0, 0, {}]]]}, {"name": "F_16_2_Relu", "class_name": "Activation", "config": {"name": "F_16_2_Relu", "trainable": true, "activation": "relu"}, "inbound_nodes": [[["F_16_2", 0, 0, {}]]]}, {"name": "RDB_Concat_16_2", "class_name": "Concatenate", "config": {"name": "RDB_Concat_16_2", "trainable": true, "axis": 3}, "inbound_nodes": [[["RDB_Concat_16_1", 0, 0, {}], ["F_16_2_Relu", 0, 0, {}]]]}, {"name": "F_16_3", "class_name": "Conv2D", "config": {"name": "F_16_3", "trainable": true, "filters": 64, "kernel_size": [3, 3], "strides": [1, 1], "padding": "same", "data_format": "channels_last", "dilation_rate": [1, 1], "activation": "linear", "use_bias": true, "kernel_initializer": {"class_name": "VarianceScaling", "config": {"scale": 1.0, "mode": "fan_avg", "distribution": "uniform", "seed": null}}, "bias_initializer": {"class_name": "Zeros", "config": {}}, "kernel_regularizer": null, "bias_regularizer": null, "activity_regularizer": null, "kernel_constraint": null, "bias_constraint": null}, "inbound_nodes": [[["RDB_Concat_16_2", 0, 0, {}]]]}, {"name": "F_16_3_Relu", "class_name": "Activation", "config": {"name": "F_16_3_Relu", "trainable": true, "activation": "relu"}, "inbound_nodes": [[["F_16_3", 0, 0, {}]]]}, {"name": "RDB_Concat_16_3", "class_name": "Concatenate", "config": {"name": "RDB_Concat_16_3", "trainable": true, "axis": 3}, "inbound_nodes": [[["RDB_Concat_16_2", 0, 0, {}], ["F_16_3_Relu", 0, 0, {}]]]}, {"name": "F_16_4", "class_name": "Conv2D", "config": {"name": "F_16_4", "trainable": true, "filters": 64, "kernel_size": [3, 3], "strides": [1, 1], "padding": "same", "data_format": "channels_last", "dilation_rate": [1, 1], "activation": "linear", "use_bias": true, "kernel_initializer": {"class_name": "VarianceScaling", "config": {"scale": 1.0, "mode": "fan_avg", "distribution": "uniform", "seed": null}}, "bias_initializer": {"class_name": "Zeros", "config": {}}, "kernel_regularizer": null, "bias_regularizer": null, "activity_regularizer": null, "kernel_constraint": null, "bias_constraint": null}, "inbound_nodes": [[["RDB_Concat_16_3", 0, 0, {}]]]}, {"name": "F_16_4_Relu", "class_name": "Activation", "config": {"name": "F_16_4_Relu", "trainable": true, "activation": "relu"}, "inbound_nodes": [[["F_16_4", 0, 0, {}]]]}, {"name": "RDB_Concat_16_4", "class_name": "Concatenate", "config": {"name": "RDB_Concat_16_4", "trainable": true, "axis": 3}, "inbound_nodes": [[["RDB_Concat_16_3", 0, 0, {}], ["F_16_4_Relu", 0, 0, {}]]]}, {"name": "F_16_5", "class_name": "Conv2D", "config": {"name": "F_16_5", "trainable": true, "filters": 64, "kernel_size": [3, 3], "strides": [1, 1], "padding": "same", "data_format": "channels_last", "dilation_rate": [1, 1], "activation": "linear", "use_bias": true, "kernel_initializer": {"class_name": "VarianceScaling", "config": {"scale": 1.0, "mode": "fan_avg", "distribution": "uniform", "seed": null}}, "bias_initializer": {"class_name": "Zeros", "config": {}}, "kernel_regularizer": null, "bias_regularizer": null, "activity_regularizer": null, "kernel_constraint": null, "bias_constraint": null}, "inbound_nodes": [[["RDB_Concat_16_4", 0, 0, {}]]]}, {"name": "F_16_5_Relu", "class_name": "Activation", "config": {"name": "F_16_5_Relu", "trainable": true, "activation": "relu"}, "inbound_nodes": [[["F_16_5", 0, 0, {}]]]}, {"name": "RDB_Concat_16_5", "class_name": "Concatenate", "config": {"name": "RDB_Concat_16_5", "trainable": true, "axis": 3}, "inbound_nodes": [[["RDB_Concat_16_4", 0, 0, {}], ["F_16_5_Relu", 0, 0, {}]]]}, {"name": "F_16_6", "class_name": "Conv2D", "config": {"name": "F_16_6", "trainable": true, "filters": 64, "kernel_size": [3, 3], "strides": [1, 1], "padding": "same", "data_format": "channels_last", "dilation_rate": [1, 1], "activation": "linear", "use_bias": true, "kernel_initializer": {"class_name": "VarianceScaling", "config": {"scale": 1.0, "mode": "fan_avg", "distribution": "uniform", "seed": null}}, "bias_initializer": {"class_name": "Zeros", "config": {}}, "kernel_regularizer": null, "bias_regularizer": null, "activity_regularizer": null, "kernel_constraint": null, "bias_constraint": null}, "inbound_nodes": [[["RDB_Concat_16_5", 0, 0, {}]]]}, {"name": "F_16_6_Relu", "class_name": "Activation", "config": {"name": "F_16_6_Relu", "trainable": true, "activation": "relu"}, "inbound_nodes": [[["F_16_6", 0, 0, {}]]]}, {"name": "RDB_Concat_16_6", "class_name": "Concatenate", "config": {"name": "RDB_Concat_16_6", "trainable": true, "axis": 3}, "inbound_nodes": [[["RDB_Concat_16_5", 0, 0, {}], ["F_16_6_Relu", 0, 0, {}]]]}, {"name": "LFF_16", "class_name": "Conv2D", "config": {"name": "LFF_16", "trainable": true, "filters": 64, "kernel_size": [1, 1], "strides": [1, 1], "padding": "valid", "data_format": "channels_last", "dilation_rate": [1, 1], "activation": "linear", "use_bias": true, "kernel_initializer": {"class_name": "VarianceScaling", "config": {"scale": 1.0, "mode": "fan_avg", "distribution": "uniform", "seed": null}}, "bias_initializer": {"class_name": "Zeros", "config": {}}, "kernel_regularizer": null, "bias_regularizer": null, "activity_regularizer": null, "kernel_constraint": null, "bias_constraint": null}, "inbound_nodes": [[["RDB_Concat_16_6", 0, 0, {}]]]}, {"name": "LRL_16", "class_name": "Add", "config": {"name": "LRL_16", "trainable": true}, "inbound_nodes": [[["LFF_16", 0, 0, {}], ["LRL_15", 0, 0, {}]]]}, {"name": "F_17_1", "class_name": "Conv2D", "config": {"name": "F_17_1", "trainable": true, "filters": 64, "kernel_size": [3, 3], "strides": [1, 1], "padding": "same", "data_format": "channels_last", "dilation_rate": [1, 1], "activation": "linear", "use_bias": true, "kernel_initializer": {"class_name": "VarianceScaling", "config": {"scale": 1.0, "mode": "fan_avg", "distribution": "uniform", "seed": null}}, "bias_initializer": {"class_name": "Zeros", "config": {}}, "kernel_regularizer": null, "bias_regularizer": null, "activity_regularizer": null, "kernel_constraint": null, "bias_constraint": null}, "inbound_nodes": [[["LRL_16", 0, 0, {}]]]}, {"name": "F_17_1_Relu", "class_name": "Activation", "config": {"name": "F_17_1_Relu", "trainable": true, "activation": "relu"}, "inbound_nodes": [[["F_17_1", 0, 0, {}]]]}, {"name": "RDB_Concat_17_1", "class_name": "Concatenate", "config": {"name": "RDB_Concat_17_1", "trainable": true, "axis": 3}, "inbound_nodes": [[["LRL_16", 0, 0, {}], ["F_17_1_Relu", 0, 0, {}]]]}, {"name": "F_17_2", "class_name": "Conv2D", "config": {"name": "F_17_2", "trainable": true, "filters": 64, "kernel_size": [3, 3], "strides": [1, 1], "padding": "same", "data_format": "channels_last", "dilation_rate": [1, 1], "activation": "linear", "use_bias": true, "kernel_initializer": {"class_name": "VarianceScaling", "config": {"scale": 1.0, "mode": "fan_avg", "distribution": "uniform", "seed": null}}, "bias_initializer": {"class_name": "Zeros", "config": {}}, "kernel_regularizer": null, "bias_regularizer": null, "activity_regularizer": null, "kernel_constraint": null, "bias_constraint": null}, "inbound_nodes": [[["RDB_Concat_17_1", 0, 0, {}]]]}, {"name": "F_17_2_Relu", "class_name": "Activation", "config": {"name": "F_17_2_Relu", "trainable": true, "activation": "relu"}, "inbound_nodes": [[["F_17_2", 0, 0, {}]]]}, {"name": "RDB_Concat_17_2", "class_name": "Concatenate", "config": {"name": "RDB_Concat_17_2", "trainable": true, "axis": 3}, "inbound_nodes": [[["RDB_Concat_17_1", 0, 0, {}], ["F_17_2_Relu", 0, 0, {}]]]}, {"name": "F_17_3", "class_name": "Conv2D", "config": {"name": "F_17_3", "trainable": true, "filters": 64, "kernel_size": [3, 3], "strides": [1, 1], "padding": "same", "data_format": "channels_last", "dilation_rate": [1, 1], "activation": "linear", "use_bias": true, "kernel_initializer": {"class_name": "VarianceScaling", "config": {"scale": 1.0, "mode": "fan_avg", "distribution": "uniform", "seed": null}}, "bias_initializer": {"class_name": "Zeros", "config": {}}, "kernel_regularizer": null, "bias_regularizer": null, "activity_regularizer": null, "kernel_constraint": null, "bias_constraint": null}, "inbound_nodes": [[["RDB_Concat_17_2", 0, 0, {}]]]}, {"name": "F_17_3_Relu", "class_name": "Activation", "config": {"name": "F_17_3_Relu", "trainable": true, "activation": "relu"}, "inbound_nodes": [[["F_17_3", 0, 0, {}]]]}, {"name": "RDB_Concat_17_3", "class_name": "Concatenate", "config": {"name": "RDB_Concat_17_3", "trainable": true, "axis": 3}, "inbound_nodes": [[["RDB_Concat_17_2", 0, 0, {}], ["F_17_3_Relu", 0, 0, {}]]]}, {"name": "F_17_4", "class_name": "Conv2D", "config": {"name": "F_17_4", "trainable": true, "filters": 64, "kernel_size": [3, 3], "strides": [1, 1], "padding": "same", "data_format": "channels_last", "dilation_rate": [1, 1], "activation": "linear", "use_bias": true, "kernel_initializer": {"class_name": "VarianceScaling", "config": {"scale": 1.0, "mode": "fan_avg", "distribution": "uniform", "seed": null}}, "bias_initializer": {"class_name": "Zeros", "config": {}}, "kernel_regularizer": null, "bias_regularizer": null, "activity_regularizer": null, "kernel_constraint": null, "bias_constraint": null}, "inbound_nodes": [[["RDB_Concat_17_3", 0, 0, {}]]]}, {"name": "F_17_4_Relu", "class_name": "Activation", "config": {"name": "F_17_4_Relu", "trainable": true, "activation": "relu"}, "inbound_nodes": [[["F_17_4", 0, 0, {}]]]}, {"name": "RDB_Concat_17_4", "class_name": "Concatenate", "config": {"name": "RDB_Concat_17_4", "trainable": true, "axis": 3}, "inbound_nodes": [[["RDB_Concat_17_3", 0, 0, {}], ["F_17_4_Relu", 0, 0, {}]]]}, {"name": "F_17_5", "class_name": "Conv2D", "config": {"name": "F_17_5", "trainable": true, "filters": 64, "kernel_size": [3, 3], "strides": [1, 1], "padding": "same", "data_format": "channels_last", "dilation_rate": [1, 1], "activation": "linear", "use_bias": true, "kernel_initializer": {"class_name": "VarianceScaling", "config": {"scale": 1.0, "mode": "fan_avg", "distribution": "uniform", "seed": null}}, "bias_initializer": {"class_name": "Zeros", "config": {}}, "kernel_regularizer": null, "bias_regularizer": null, "activity_regularizer": null, "kernel_constraint": null, "bias_constraint": null}, "inbound_nodes": [[["RDB_Concat_17_4", 0, 0, {}]]]}, {"name": "F_17_5_Relu", "class_name": "Activation", "config": {"name": "F_17_5_Relu", "trainable": true, "activation": "relu"}, "inbound_nodes": [[["F_17_5", 0, 0, {}]]]}, {"name": "RDB_Concat_17_5", "class_name": "Concatenate", "config": {"name": "RDB_Concat_17_5", "trainable": true, "axis": 3}, "inbound_nodes": [[["RDB_Concat_17_4", 0, 0, {}], ["F_17_5_Relu", 0, 0, {}]]]}, {"name": "F_17_6", "class_name": "Conv2D", "config": {"name": "F_17_6", "trainable": true, "filters": 64, "kernel_size": [3, 3], "strides": [1, 1], "padding": "same", "data_format": "channels_last", "dilation_rate": [1, 1], "activation": "linear", "use_bias": true, "kernel_initializer": {"class_name": "VarianceScaling", "config": {"scale": 1.0, "mode": "fan_avg", "distribution": "uniform", "seed": null}}, "bias_initializer": {"class_name": "Zeros", "config": {}}, "kernel_regularizer": null, "bias_regularizer": null, "activity_regularizer": null, "kernel_constraint": null, "bias_constraint": null}, "inbound_nodes": [[["RDB_Concat_17_5", 0, 0, {}]]]}, {"name": "F_17_6_Relu", "class_name": "Activation", "config": {"name": "F_17_6_Relu", "trainable": true, "activation": "relu"}, "inbound_nodes": [[["F_17_6", 0, 0, {}]]]}, {"name": "RDB_Concat_17_6", "class_name": "Concatenate", "config": {"name": "RDB_Concat_17_6", "trainable": true, "axis": 3}, "inbound_nodes": [[["RDB_Concat_17_5", 0, 0, {}], ["F_17_6_Relu", 0, 0, {}]]]}, {"name": "LFF_17", "class_name": "Conv2D", "config": {"name": "LFF_17", "trainable": true, "filters": 64, "kernel_size": [1, 1], "strides": [1, 1], "padding": "valid", "data_format": "channels_last", "dilation_rate": [1, 1], "activation": "linear", "use_bias": true, "kernel_initializer": {"class_name": "VarianceScaling", "config": {"scale": 1.0, "mode": "fan_avg", "distribution": "uniform", "seed": null}}, "bias_initializer": {"class_name": "Zeros", "config": {}}, "kernel_regularizer": null, "bias_regularizer": null, "activity_regularizer": null, "kernel_constraint": null, "bias_constraint": null}, "inbound_nodes": [[["RDB_Concat_17_6", 0, 0, {}]]]}, {"name": "LRL_17", "class_name": "Add", "config": {"name": "LRL_17", "trainable": true}, "inbound_nodes": [[["LFF_17", 0, 0, {}], ["LRL_16", 0, 0, {}]]]}, {"name": "F_18_1", "class_name": "Conv2D", "config": {"name": "F_18_1", "trainable": true, "filters": 64, "kernel_size": [3, 3], "strides": [1, 1], "padding": "same", "data_format": "channels_last", "dilation_rate": [1, 1], "activation": "linear", "use_bias": true, "kernel_initializer": {"class_name": "VarianceScaling", "config": {"scale": 1.0, "mode": "fan_avg", "distribution": "uniform", "seed": null}}, "bias_initializer": {"class_name": "Zeros", "config": {}}, "kernel_regularizer": null, "bias_regularizer": null, "activity_regularizer": null, "kernel_constraint": null, "bias_constraint": null}, "inbound_nodes": [[["LRL_17", 0, 0, {}]]]}, {"name": "F_18_1_Relu", "class_name": "Activation", "config": {"name": "F_18_1_Relu", "trainable": true, "activation": "relu"}, "inbound_nodes": [[["F_18_1", 0, 0, {}]]]}, {"name": "RDB_Concat_18_1", "class_name": "Concatenate", "config": {"name": "RDB_Concat_18_1", "trainable": true, "axis": 3}, "inbound_nodes": [[["LRL_17", 0, 0, {}], ["F_18_1_Relu", 0, 0, {}]]]}, {"name": "F_18_2", "class_name": "Conv2D", "config": {"name": "F_18_2", "trainable": true, "filters": 64, "kernel_size": [3, 3], "strides": [1, 1], "padding": "same", "data_format": "channels_last", "dilation_rate": [1, 1], "activation": "linear", "use_bias": true, "kernel_initializer": {"class_name": "VarianceScaling", "config": {"scale": 1.0, "mode": "fan_avg", "distribution": "uniform", "seed": null}}, "bias_initializer": {"class_name": "Zeros", "config": {}}, "kernel_regularizer": null, "bias_regularizer": null, "activity_regularizer": null, "kernel_constraint": null, "bias_constraint": null}, "inbound_nodes": [[["RDB_Concat_18_1", 0, 0, {}]]]}, {"name": "F_18_2_Relu", "class_name": "Activation", "config": {"name": "F_18_2_Relu", "trainable": true, "activation": "relu"}, "inbound_nodes": [[["F_18_2", 0, 0, {}]]]}, {"name": "RDB_Concat_18_2", "class_name": "Concatenate", "config": {"name": "RDB_Concat_18_2", "trainable": true, "axis": 3}, "inbound_nodes": [[["RDB_Concat_18_1", 0, 0, {}], ["F_18_2_Relu", 0, 0, {}]]]}, {"name": "F_18_3", "class_name": "Conv2D", "config": {"name": "F_18_3", "trainable": true, "filters": 64, "kernel_size": [3, 3], "strides": [1, 1], "padding": "same", "data_format": "channels_last", "dilation_rate": [1, 1], "activation": "linear", "use_bias": true, "kernel_initializer": {"class_name": "VarianceScaling", "config": {"scale": 1.0, "mode": "fan_avg", "distribution": "uniform", "seed": null}}, "bias_initializer": {"class_name": "Zeros", "config": {}}, "kernel_regularizer": null, "bias_regularizer": null, "activity_regularizer": null, "kernel_constraint": null, "bias_constraint": null}, "inbound_nodes": [[["RDB_Concat_18_2", 0, 0, {}]]]}, {"name": "F_18_3_Relu", "class_name": "Activation", "config": {"name": "F_18_3_Relu", "trainable": true, "activation": "relu"}, "inbound_nodes": [[["F_18_3", 0, 0, {}]]]}, {"name": "RDB_Concat_18_3", "class_name": "Concatenate", "config": {"name": "RDB_Concat_18_3", "trainable": true, "axis": 3}, "inbound_nodes": [[["RDB_Concat_18_2", 0, 0, {}], ["F_18_3_Relu", 0, 0, {}]]]}, {"name": "F_18_4", "class_name": "Conv2D", "config": {"name": "F_18_4", "trainable": true, "filters": 64, "kernel_size": [3, 3], "strides": [1, 1], "padding": "same", "data_format": "channels_last", "dilation_rate": [1, 1], "activation": "linear", "use_bias": true, "kernel_initializer": {"class_name": "VarianceScaling", "config": {"scale": 1.0, "mode": "fan_avg", "distribution": "uniform", "seed": null}}, "bias_initializer": {"class_name": "Zeros", "config": {}}, "kernel_regularizer": null, "bias_regularizer": null, "activity_regularizer": null, "kernel_constraint": null, "bias_constraint": null}, "inbound_nodes": [[["RDB_Concat_18_3", 0, 0, {}]]]}, {"name": "F_18_4_Relu", "class_name": "Activation", "config": {"name": "F_18_4_Relu", "trainable": true, "activation": "relu"}, "inbound_nodes": [[["F_18_4", 0, 0, {}]]]}, {"name": "RDB_Concat_18_4", "class_name": "Concatenate", "config": {"name": "RDB_Concat_18_4", "trainable": true, "axis": 3}, "inbound_nodes": [[["RDB_Concat_18_3", 0, 0, {}], ["F_18_4_Relu", 0, 0, {}]]]}, {"name": "F_18_5", "class_name": "Conv2D", "config": {"name": "F_18_5", "trainable": true, "filters": 64, "kernel_size": [3, 3], "strides": [1, 1], "padding": "same", "data_format": "channels_last", "dilation_rate": [1, 1], "activation": "linear", "use_bias": true, "kernel_initializer": {"class_name": "VarianceScaling", "config": {"scale": 1.0, "mode": "fan_avg", "distribution": "uniform", "seed": null}}, "bias_initializer": {"class_name": "Zeros", "config": {}}, "kernel_regularizer": null, "bias_regularizer": null, "activity_regularizer": null, "kernel_constraint": null, "bias_constraint": null}, "inbound_nodes": [[["RDB_Concat_18_4", 0, 0, {}]]]}, {"name": "F_18_5_Relu", "class_name": "Activation", "config": {"name": "F_18_5_Relu", "trainable": true, "activation": "relu"}, "inbound_nodes": [[["F_18_5", 0, 0, {}]]]}, {"name": "RDB_Concat_18_5", "class_name": "Concatenate", "config": {"name": "RDB_Concat_18_5", "trainable": true, "axis": 3}, "inbound_nodes": [[["RDB_Concat_18_4", 0, 0, {}], ["F_18_5_Relu", 0, 0, {}]]]}, {"name": "F_18_6", "class_name": "Conv2D", "config": {"name": "F_18_6", "trainable": true, "filters": 64, "kernel_size": [3, 3], "strides": [1, 1], "padding": "same", "data_format": "channels_last", "dilation_rate": [1, 1], "activation": "linear", "use_bias": true, "kernel_initializer": {"class_name": "VarianceScaling", "config": {"scale": 1.0, "mode": "fan_avg", "distribution": "uniform", "seed": null}}, "bias_initializer": {"class_name": "Zeros", "config": {}}, "kernel_regularizer": null, "bias_regularizer": null, "activity_regularizer": null, "kernel_constraint": null, "bias_constraint": null}, "inbound_nodes": [[["RDB_Concat_18_5", 0, 0, {}]]]}, {"name": "F_18_6_Relu", "class_name": "Activation", "config": {"name": "F_18_6_Relu", "trainable": true, "activation": "relu"}, "inbound_nodes": [[["F_18_6", 0, 0, {}]]]}, {"name": "RDB_Concat_18_6", "class_name": "Concatenate", "config": {"name": "RDB_Concat_18_6", "trainable": true, "axis": 3}, "inbound_nodes": [[["RDB_Concat_18_5", 0, 0, {}], ["F_18_6_Relu", 0, 0, {}]]]}, {"name": "LFF_18", "class_name": "Conv2D", "config": {"name": "LFF_18", "trainable": true, "filters": 64, "kernel_size": [1, 1], "strides": [1, 1], "padding": "valid", "data_format": "channels_last", "dilation_rate": [1, 1], "activation": "linear", "use_bias": true, "kernel_initializer": {"class_name": "VarianceScaling", "config": {"scale": 1.0, "mode": "fan_avg", "distribution": "uniform", "seed": null}}, "bias_initializer": {"class_name": "Zeros", "config": {}}, "kernel_regularizer": null, "bias_regularizer": null, "activity_regularizer": null, "kernel_constraint": null, "bias_constraint": null}, "inbound_nodes": [[["RDB_Concat_18_6", 0, 0, {}]]]}, {"name": "LRL_18", "class_name": "Add", "config": {"name": "LRL_18", "trainable": true}, "inbound_nodes": [[["LFF_18", 0, 0, {}], ["LRL_17", 0, 0, {}]]]}, {"name": "F_19_1", "class_name": "Conv2D", "config": {"name": "F_19_1", "trainable": true, "filters": 64, "kernel_size": [3, 3], "strides": [1, 1], "padding": "same", "data_format": "channels_last", "dilation_rate": [1, 1], "activation": "linear", "use_bias": true, "kernel_initializer": {"class_name": "VarianceScaling", "config": {"scale": 1.0, "mode": "fan_avg", "distribution": "uniform", "seed": null}}, "bias_initializer": {"class_name": "Zeros", "config": {}}, "kernel_regularizer": null, "bias_regularizer": null, "activity_regularizer": null, "kernel_constraint": null, "bias_constraint": null}, "inbound_nodes": [[["LRL_18", 0, 0, {}]]]}, {"name": "F_19_1_Relu", "class_name": "Activation", "config": {"name": "F_19_1_Relu", "trainable": true, "activation": "relu"}, "inbound_nodes": [[["F_19_1", 0, 0, {}]]]}, {"name": "RDB_Concat_19_1", "class_name": "Concatenate", "config": {"name": "RDB_Concat_19_1", "trainable": true, "axis": 3}, "inbound_nodes": [[["LRL_18", 0, 0, {}], ["F_19_1_Relu", 0, 0, {}]]]}, {"name": "F_19_2", "class_name": "Conv2D", "config": {"name": "F_19_2", "trainable": true, "filters": 64, "kernel_size": [3, 3], "strides": [1, 1], "padding": "same", "data_format": "channels_last", "dilation_rate": [1, 1], "activation": "linear", "use_bias": true, "kernel_initializer": {"class_name": "VarianceScaling", "config": {"scale": 1.0, "mode": "fan_avg", "distribution": "uniform", "seed": null}}, "bias_initializer": {"class_name": "Zeros", "config": {}}, "kernel_regularizer": null, "bias_regularizer": null, "activity_regularizer": null, "kernel_constraint": null, "bias_constraint": null}, "inbound_nodes": [[["RDB_Concat_19_1", 0, 0, {}]]]}, {"name": "F_19_2_Relu", "class_name": "Activation", "config": {"name": "F_19_2_Relu", "trainable": true, "activation": "relu"}, "inbound_nodes": [[["F_19_2", 0, 0, {}]]]}, {"name": "RDB_Concat_19_2", "class_name": "Concatenate", "config": {"name": "RDB_Concat_19_2", "trainable": true, "axis": 3}, "inbound_nodes": [[["RDB_Concat_19_1", 0, 0, {}], ["F_19_2_Relu", 0, 0, {}]]]}, {"name": "F_19_3", "class_name": "Conv2D", "config": {"name": "F_19_3", "trainable": true, "filters": 64, "kernel_size": [3, 3], "strides": [1, 1], "padding": "same", "data_format": "channels_last", "dilation_rate": [1, 1], "activation": "linear", "use_bias": true, "kernel_initializer": {"class_name": "VarianceScaling", "config": {"scale": 1.0, "mode": "fan_avg", "distribution": "uniform", "seed": null}}, "bias_initializer": {"class_name": "Zeros", "config": {}}, "kernel_regularizer": null, "bias_regularizer": null, "activity_regularizer": null, "kernel_constraint": null, "bias_constraint": null}, "inbound_nodes": [[["RDB_Concat_19_2", 0, 0, {}]]]}, {"name": "F_19_3_Relu", "class_name": "Activation", "config": {"name": "F_19_3_Relu", "trainable": true, "activation": "relu"}, "inbound_nodes": [[["F_19_3", 0, 0, {}]]]}, {"name": "RDB_Concat_19_3", "class_name": "Concatenate", "config": {"name": "RDB_Concat_19_3", "trainable": true, "axis": 3}, "inbound_nodes": [[["RDB_Concat_19_2", 0, 0, {}], ["F_19_3_Relu", 0, 0, {}]]]}, {"name": "F_19_4", "class_name": "Conv2D", "config": {"name": "F_19_4", "trainable": true, "filters": 64, "kernel_size": [3, 3], "strides": [1, 1], "padding": "same", "data_format": "channels_last", "dilation_rate": [1, 1], "activation": "linear", "use_bias": true, "kernel_initializer": {"class_name": "VarianceScaling", "config": {"scale": 1.0, "mode": "fan_avg", "distribution": "uniform", "seed": null}}, "bias_initializer": {"class_name": "Zeros", "config": {}}, "kernel_regularizer": null, "bias_regularizer": null, "activity_regularizer": null, "kernel_constraint": null, "bias_constraint": null}, "inbound_nodes": [[["RDB_Concat_19_3", 0, 0, {}]]]}, {"name": "F_19_4_Relu", "class_name": "Activation", "config": {"name": "F_19_4_Relu", "trainable": true, "activation": "relu"}, "inbound_nodes": [[["F_19_4", 0, 0, {}]]]}, {"name": "RDB_Concat_19_4", "class_name": "Concatenate", "config": {"name": "RDB_Concat_19_4", "trainable": true, "axis": 3}, "inbound_nodes": [[["RDB_Concat_19_3", 0, 0, {}], ["F_19_4_Relu", 0, 0, {}]]]}, {"name": "F_19_5", "class_name": "Conv2D", "config": {"name": "F_19_5", "trainable": true, "filters": 64, "kernel_size": [3, 3], "strides": [1, 1], "padding": "same", "data_format": "channels_last", "dilation_rate": [1, 1], "activation": "linear", "use_bias": true, "kernel_initializer": {"class_name": "VarianceScaling", "config": {"scale": 1.0, "mode": "fan_avg", "distribution": "uniform", "seed": null}}, "bias_initializer": {"class_name": "Zeros", "config": {}}, "kernel_regularizer": null, "bias_regularizer": null, "activity_regularizer": null, "kernel_constraint": null, "bias_constraint": null}, "inbound_nodes": [[["RDB_Concat_19_4", 0, 0, {}]]]}, {"name": "F_19_5_Relu", "class_name": "Activation", "config": {"name": "F_19_5_Relu", "trainable": true, "activation": "relu"}, "inbound_nodes": [[["F_19_5", 0, 0, {}]]]}, {"name": "RDB_Concat_19_5", "class_name": "Concatenate", "config": {"name": "RDB_Concat_19_5", "trainable": true, "axis": 3}, "inbound_nodes": [[["RDB_Concat_19_4", 0, 0, {}], ["F_19_5_Relu", 0, 0, {}]]]}, {"name": "F_19_6", "class_name": "Conv2D", "config": {"name": "F_19_6", "trainable": true, "filters": 64, "kernel_size": [3, 3], "strides": [1, 1], "padding": "same", "data_format": "channels_last", "dilation_rate": [1, 1], "activation": "linear", "use_bias": true, "kernel_initializer": {"class_name": "VarianceScaling", "config": {"scale": 1.0, "mode": "fan_avg", "distribution": "uniform", "seed": null}}, "bias_initializer": {"class_name": "Zeros", "config": {}}, "kernel_regularizer": null, "bias_regularizer": null, "activity_regularizer": null, "kernel_constraint": null, "bias_constraint": null}, "inbound_nodes": [[["RDB_Concat_19_5", 0, 0, {}]]]}, {"name": "F_19_6_Relu", "class_name": "Activation", "config": {"name": "F_19_6_Relu", "trainable": true, "activation": "relu"}, "inbound_nodes": [[["F_19_6", 0, 0, {}]]]}, {"name": "RDB_Concat_19_6", "class_name": "Concatenate", "config": {"name": "RDB_Concat_19_6", "trainable": true, "axis": 3}, "inbound_nodes": [[["RDB_Concat_19_5", 0, 0, {}], ["F_19_6_Relu", 0, 0, {}]]]}, {"name": "LFF_19", "class_name": "Conv2D", "config": {"name": "LFF_19", "trainable": true, "filters": 64, "kernel_size": [1, 1], "strides": [1, 1], "padding": "valid", "data_format": "channels_last", "dilation_rate": [1, 1], "activation": "linear", "use_bias": true, "kernel_initializer": {"class_name": "VarianceScaling", "config": {"scale": 1.0, "mode": "fan_avg", "distribution": "uniform", "seed": null}}, "bias_initializer": {"class_name": "Zeros", "config": {}}, "kernel_regularizer": null, "bias_regularizer": null, "activity_regularizer": null, "kernel_constraint": null, "bias_constraint": null}, "inbound_nodes": [[["RDB_Concat_19_6", 0, 0, {}]]]}, {"name": "LRL_19", "class_name": "Add", "config": {"name": "LRL_19", "trainable": true}, "inbound_nodes": [[["LFF_19", 0, 0, {}], ["LRL_18", 0, 0, {}]]]}, {"name": "F_20_1", "class_name": "Conv2D", "config": {"name": "F_20_1", "trainable": true, "filters": 64, "kernel_size": [3, 3], "strides": [1, 1], "padding": "same", "data_format": "channels_last", "dilation_rate": [1, 1], "activation": "linear", "use_bias": true, "kernel_initializer": {"class_name": "VarianceScaling", "config": {"scale": 1.0, "mode": "fan_avg", "distribution": "uniform", "seed": null}}, "bias_initializer": {"class_name": "Zeros", "config": {}}, "kernel_regularizer": null, "bias_regularizer": null, "activity_regularizer": null, "kernel_constraint": null, "bias_constraint": null}, "inbound_nodes": [[["LRL_19", 0, 0, {}]]]}, {"name": "F_20_1_Relu", "class_name": "Activation", "config": {"name": "F_20_1_Relu", "trainable": true, "activation": "relu"}, "inbound_nodes": [[["F_20_1", 0, 0, {}]]]}, {"name": "RDB_Concat_20_1", "class_name": "Concatenate", "config": {"name": "RDB_Concat_20_1", "trainable": true, "axis": 3}, "inbound_nodes": [[["LRL_19", 0, 0, {}], ["F_20_1_Relu", 0, 0, {}]]]}, {"name": "F_20_2", "class_name": "Conv2D", "config": {"name": "F_20_2", "trainable": true, "filters": 64, "kernel_size": [3, 3], "strides": [1, 1], "padding": "same", "data_format": "channels_last", "dilation_rate": [1, 1], "activation": "linear", "use_bias": true, "kernel_initializer": {"class_name": "VarianceScaling", "config": {"scale": 1.0, "mode": "fan_avg", "distribution": "uniform", "seed": null}}, "bias_initializer": {"class_name": "Zeros", "config": {}}, "kernel_regularizer": null, "bias_regularizer": null, "activity_regularizer": null, "kernel_constraint": null, "bias_constraint": null}, "inbound_nodes": [[["RDB_Concat_20_1", 0, 0, {}]]]}, {"name": "F_20_2_Relu", "class_name": "Activation", "config": {"name": "F_20_2_Relu", "trainable": true, "activation": "relu"}, "inbound_nodes": [[["F_20_2", 0, 0, {}]]]}, {"name": "RDB_Concat_20_2", "class_name": "Concatenate", "config": {"name": "RDB_Concat_20_2", "trainable": true, "axis": 3}, "inbound_nodes": [[["RDB_Concat_20_1", 0, 0, {}], ["F_20_2_Relu", 0, 0, {}]]]}, {"name": "F_20_3", "class_name": "Conv2D", "config": {"name": "F_20_3", "trainable": true, "filters": 64, "kernel_size": [3, 3], "strides": [1, 1], "padding": "same", "data_format": "channels_last", "dilation_rate": [1, 1], "activation": "linear", "use_bias": true, "kernel_initializer": {"class_name": "VarianceScaling", "config": {"scale": 1.0, "mode": "fan_avg", "distribution": "uniform", "seed": null}}, "bias_initializer": {"class_name": "Zeros", "config": {}}, "kernel_regularizer": null, "bias_regularizer": null, "activity_regularizer": null, "kernel_constraint": null, "bias_constraint": null}, "inbound_nodes": [[["RDB_Concat_20_2", 0, 0, {}]]]}, {"name": "F_20_3_Relu", "class_name": "Activation", "config": {"name": "F_20_3_Relu", "trainable": true, "activation": "relu"}, "inbound_nodes": [[["F_20_3", 0, 0, {}]]]}, {"name": "RDB_Concat_20_3", "class_name": "Concatenate", "config": {"name": "RDB_Concat_20_3", "trainable": true, "axis": 3}, "inbound_nodes": [[["RDB_Concat_20_2", 0, 0, {}], ["F_20_3_Relu", 0, 0, {}]]]}, {"name": "F_20_4", "class_name": "Conv2D", "config": {"name": "F_20_4", "trainable": true, "filters": 64, "kernel_size": [3, 3], "strides": [1, 1], "padding": "same", "data_format": "channels_last", "dilation_rate": [1, 1], "activation": "linear", "use_bias": true, "kernel_initializer": {"class_name": "VarianceScaling", "config": {"scale": 1.0, "mode": "fan_avg", "distribution": "uniform", "seed": null}}, "bias_initializer": {"class_name": "Zeros", "config": {}}, "kernel_regularizer": null, "bias_regularizer": null, "activity_regularizer": null, "kernel_constraint": null, "bias_constraint": null}, "inbound_nodes": [[["RDB_Concat_20_3", 0, 0, {}]]]}, {"name": "F_20_4_Relu", "class_name": "Activation", "config": {"name": "F_20_4_Relu", "trainable": true, "activation": "relu"}, "inbound_nodes": [[["F_20_4", 0, 0, {}]]]}, {"name": "RDB_Concat_20_4", "class_name": "Concatenate", "config": {"name": "RDB_Concat_20_4", "trainable": true, "axis": 3}, "inbound_nodes": [[["RDB_Concat_20_3", 0, 0, {}], ["F_20_4_Relu", 0, 0, {}]]]}, {"name": "F_20_5", "class_name": "Conv2D", "config": {"name": "F_20_5", "trainable": true, "filters": 64, "kernel_size": [3, 3], "strides": [1, 1], "padding": "same", "data_format": "channels_last", "dilation_rate": [1, 1], "activation": "linear", "use_bias": true, "kernel_initializer": {"class_name": "VarianceScaling", "config": {"scale": 1.0, "mode": "fan_avg", "distribution": "uniform", "seed": null}}, "bias_initializer": {"class_name": "Zeros", "config": {}}, "kernel_regularizer": null, "bias_regularizer": null, "activity_regularizer": null, "kernel_constraint": null, "bias_constraint": null}, "inbound_nodes": [[["RDB_Concat_20_4", 0, 0, {}]]]}, {"name": "F_20_5_Relu", "class_name": "Activation", "config": {"name": "F_20_5_Relu", "trainable": true, "activation": "relu"}, "inbound_nodes": [[["F_20_5", 0, 0, {}]]]}, {"name": "RDB_Concat_20_5", "class_name": "Concatenate", "config": {"name": "RDB_Concat_20_5", "trainable": true, "axis": 3}, "inbound_nodes": [[["RDB_Concat_20_4", 0, 0, {}], ["F_20_5_Relu", 0, 0, {}]]]}, {"name": "F_20_6", "class_name": "Conv2D", "config": {"name": "F_20_6", "trainable": true, "filters": 64, "kernel_size": [3, 3], "strides": [1, 1], "padding": "same", "data_format": "channels_last", "dilation_rate": [1, 1], "activation": "linear", "use_bias": true, "kernel_initializer": {"class_name": "VarianceScaling", "config": {"scale": 1.0, "mode": "fan_avg", "distribution": "uniform", "seed": null}}, "bias_initializer": {"class_name": "Zeros", "config": {}}, "kernel_regularizer": null, "bias_regularizer": null, "activity_regularizer": null, "kernel_constraint": null, "bias_constraint": null}, "inbound_nodes": [[["RDB_Concat_20_5", 0, 0, {}]]]}, {"name": "F_20_6_Relu", "class_name": "Activation", "config": {"name": "F_20_6_Relu", "trainable": true, "activation": "relu"}, "inbound_nodes": [[["F_20_6", 0, 0, {}]]]}, {"name": "RDB_Concat_20_6", "class_name": "Concatenate", "config": {"name": "RDB_Concat_20_6", "trainable": true, "axis": 3}, "inbound_nodes": [[["RDB_Concat_20_5", 0, 0, {}], ["F_20_6_Relu", 0, 0, {}]]]}, {"name": "LFF_20", "class_name": "Conv2D", "config": {"name": "LFF_20", "trainable": true, "filters": 64, "kernel_size": [1, 1], "strides": [1, 1], "padding": "valid", "data_format": "channels_last", "dilation_rate": [1, 1], "activation": "linear", "use_bias": true, "kernel_initializer": {"class_name": "VarianceScaling", "config": {"scale": 1.0, "mode": "fan_avg", "distribution": "uniform", "seed": null}}, "bias_initializer": {"class_name": "Zeros", "config": {}}, "kernel_regularizer": null, "bias_regularizer": null, "activity_regularizer": null, "kernel_constraint": null, "bias_constraint": null}, "inbound_nodes": [[["RDB_Concat_20_6", 0, 0, {}]]]}, {"name": "LRL_20", "class_name": "Add", "config": {"name": "LRL_20", "trainable": true}, "inbound_nodes": [[["LFF_20", 0, 0, {}], ["LRL_19", 0, 0, {}]]]}, {"name": "LRLs_Concat", "class_name": "Concatenate", "config": {"name": "LRLs_Concat", "trainable": true, "axis": 3}, "inbound_nodes": [[["LRL_1", 0, 0, {}], ["LRL_2", 0, 0, {}], ["LRL_3", 0, 0, {}], ["LRL_4", 0, 0, {}], ["LRL_5", 0, 0, {}], ["LRL_6", 0, 0, {}], ["LRL_7", 0, 0, {}], ["LRL_8", 0, 0, {}], ["LRL_9", 0, 0, {}], ["LRL_10", 0, 0, {}], ["LRL_11", 0, 0, {}], ["LRL_12", 0, 0, {}], ["LRL_13", 0, 0, {}], ["LRL_14", 0, 0, {}], ["LRL_15", 0, 0, {}], ["LRL_16", 0, 0, {}], ["LRL_17", 0, 0, {}], ["LRL_18", 0, 0, {}], ["LRL_19", 0, 0, {}], ["LRL_20", 0, 0, {}]]]}, {"name": "GFF_1", "class_name": "Conv2D", "config": {"name": "GFF_1", "trainable": true, "filters": 64, "kernel_size": [1, 1], "strides": [1, 1], "padding": "same", "data_format": "channels_last", "dilation_rate": [1, 1], "activation": "linear", "use_bias": true, "kernel_initializer": {"class_name": "VarianceScaling", "config": {"scale": 1.0, "mode": "fan_avg", "distribution": "uniform", "seed": null}}, "bias_initializer": {"class_name": "Zeros", "config": {}}, "kernel_regularizer": null, "bias_regularizer": null, "activity_regularizer": null, "kernel_constraint": null, "bias_constraint": null}, "inbound_nodes": [[["LRLs_Concat", 0, 0, {}]]]}, {"name": "GFF_2", "class_name": "Conv2D", "config": {"name": "GFF_2", "trainable": true, "filters": 64, "kernel_size": [3, 3], "strides": [1, 1], "padding": "same", "data_format": "channels_last", "dilation_rate": [1, 1], "activation": "linear", "use_bias": true, "kernel_initializer": {"class_name": "VarianceScaling", "config": {"scale": 1.0, "mode": "fan_avg", "distribution": "uniform", "seed": null}}, "bias_initializer": {"class_name": "Zeros", "config": {}}, "kernel_regularizer": null, "bias_regularizer": null, "activity_regularizer": null, "kernel_constraint": null, "bias_constraint": null}, "inbound_nodes": [[["GFF_1", 0, 0, {}]]]}, {"name": "FDF", "class_name": "Add", "config": {"name": "FDF", "trainable": true}, "inbound_nodes": [[["GFF_2", 0, 0, {}], ["F_m1", 0, 0, {}]]]}, {"name": "UPN1", "class_name": "Conv2D", "config": {"name": "UPN1", "trainable": true, "filters": 64, "kernel_size": [5, 5], "strides": [1, 1], "padding": "same", "data_format": "channels_last", "dilation_rate": [1, 1], "activation": "linear", "use_bias": true, "kernel_initializer": {"class_name": "VarianceScaling", "config": {"scale": 1.0, "mode": "fan_avg", "distribution": "uniform", "seed": null}}, "bias_initializer": {"class_name": "Zeros", "config": {}}, "kernel_regularizer": null, "bias_regularizer": null, "activity_regularizer": null, "kernel_constraint": null, "bias_constraint": null}, "inbound_nodes": [[["FDF", 0, 0, {}]]]}, {"name": "UPN1_Relu", "class_name": "Activation", "config": {"name": "UPN1_Relu", "trainable": true, "activation": "relu"}, "inbound_nodes": [[["UPN1", 0, 0, {}]]]}, {"name": "UPN2", "class_name": "Conv2D", "config": {"name": "UPN2", "trainable": true, "filters": 32, "kernel_size": [3, 3], "strides": [1, 1], "padding": "same", "data_format": "channels_last", "dilation_rate": [1, 1], "activation": "linear", "use_bias": true, "kernel_initializer": {"class_name": "VarianceScaling", "config": {"scale": 1.0, "mode": "fan_avg", "distribution": "uniform", "seed": null}}, "bias_initializer": {"class_name": "Zeros", "config": {}}, "kernel_regularizer": null, "bias_regularizer": null, "activity_regularizer": null, "kernel_constraint": null, "bias_constraint": null}, "inbound_nodes": [[["UPN1_Relu", 0, 0, {}]]]}, {"name": "UPN2_Relu", "class_name": "Activation", "config": {"name": "UPN2_Relu", "trainable": true, "activation": "relu"}, "inbound_nodes": [[["UPN2", 0, 0, {}]]]}, {"name": "UPN3", "class_name": "Conv2D", "config": {"name": "UPN3", "trainable": true, "filters": 12, "kernel_size": [3, 3], "strides": [1, 1], "padding": "same", "data_format": "channels_last", "dilation_rate": [1, 1], "activation": "linear", "use_bias": true, "kernel_initializer": {"class_name": "VarianceScaling", "config": {"scale": 1.0, "mode": "fan_avg", "distribution": "uniform", "seed": null}}, "bias_initializer": {"class_name": "Zeros", "config": {}}, "kernel_regularizer": null, "bias_regularizer": null, "activity_regularizer": null, "kernel_constraint": null, "bias_constraint": null}, "inbound_nodes": [[["UPN2_Relu", 0, 0, {}]]]}, {"name": "UPsample", "class_name": "UpSampling2D", "config": {"name": "UPsample", "trainable": true, "size": [2, 2], "data_format": "channels_last"}, "inbound_nodes": [[["UPN3", 0, 0, {}]]]}, {"name": "SR", "class_name": "Conv2D", "config": {"name": "SR", "trainable": true, "filters": 3, "kernel_size": [3, 3], "strides": [1, 1], "padding": "same", "data_format": "channels_last", "dilation_rate": [1, 1], "activation": "linear", "use_bias": true, "kernel_initializer": {"class_name": "VarianceScaling", "config": {"scale": 1.0, "mode": "fan_avg", "distribution": "uniform", "seed": null}}, "bias_initializer": {"class_name": "Zeros", "config": {}}, "kernel_regularizer": null, "bias_regularizer": null, "activity_regularizer": null, "kernel_constraint": null, "bias_constraint": null}, "inbound_nodes": [[["UPsample", 0, 0, {}]]]}], "input_layers": [["LR", 0, 0]], "output_layers": [["SR", 0, 0]]}}, "training_config": {"optimizer_config": {"class_name": "Adam", "config": {"lr": 9.999999747378752e-06, "beta_1": 0.8999999761581421, "beta_2": 0.9990000128746033, "decay": 0.0, "epsilon": 1e-07, "amsgrad": false}}, "loss": "mse", "metrics": ["PSNR"], "sample_weight_mode": null, "loss_weights": null}}, "weightsManifest": [{"paths": ["group1-shard1of16", "group1-shard2of16", "group1-shard3of16", "group1-shard4of16", "group1-shard5of16", "group1-shard6of16", "group1-shard7of16", "group1-shard8of16", "group1-shard9of16", "group1-shard10of16", "group1-shard11of16", "group1-shard12of16", "group1-shard13of16", "group1-shard14of16", "group1-shard15of16", "group1-shard16of16"], "weights": [{"name": "F_0/kernel", "shape": [3, 3, 64, 64], "dtype": "float32"}, {"name": "F_0/bias", "shape": [64], "dtype": "float32"}, {"name": "F_10_1/kernel", "shape": [3, 3, 64, 64], "dtype": "float32"}, {"name": "F_10_1/bias", "shape": [64], "dtype": "float32"}, {"name": "F_10_2/kernel", "shape": [3, 3, 128, 64], "dtype": "float32"}, {"name": "F_10_2/bias", "shape": [64], "dtype": "float32"}, {"name": "F_10_3/kernel", "shape": [3, 3, 192, 64], "dtype": "float32"}, {"name": "F_10_3/bias", "shape": [64], "dtype": "float32"}, {"name": "F_10_4/kernel", "shape": [3, 3, 256, 64], "dtype": "float32"}, {"name": "F_10_4/bias", "shape": [64], "dtype": "float32"}, {"name": "F_10_5/kernel", "shape": [3, 3, 320, 64], "dtype": "float32"}, {"name": "F_10_5/bias", "shape": [64], "dtype": "float32"}, {"name": "F_10_6/kernel", "shape": [3, 3, 384, 64], "dtype": "float32"}, {"name": "F_10_6/bias", "shape": [64], "dtype": "float32"}, {"name": "F_11_1/kernel", "shape": [3, 3, 64, 64], "dtype": "float32"}, {"name": "F_11_1/bias", "shape": [64], "dtype": "float32"}, {"name": "F_11_2/kernel", "shape": [3, 3, 128, 64], "dtype": "float32"}, {"name": "F_11_2/bias", "shape": [64], "dtype": "float32"}, {"name": "F_11_3/kernel", "shape": [3, 3, 192, 64], "dtype": "float32"}, {"name": "F_11_3/bias", "shape": [64], "dtype": "float32"}, {"name": "F_11_4/kernel", "shape": [3, 3, 256, 64], "dtype": "float32"}, {"name": "F_11_4/bias", "shape": [64], "dtype": "float32"}, {"name": "F_11_5/kernel", "shape": [3, 3, 320, 64], "dtype": "float32"}, {"name": "F_11_5/bias", "shape": [64], "dtype": "float32"}, {"name": "F_11_6/kernel", "shape": [3, 3, 384, 64], "dtype": "float32"}, {"name": "F_11_6/bias", "shape": [64], "dtype": "float32"}, {"name": "F_12_1/kernel", "shape": [3, 3, 64, 64], "dtype": "float32"}, {"name": "F_12_1/bias", "shape": [64], "dtype": "float32"}, {"name": "F_12_2/kernel", "shape": [3, 3, 128, 64], "dtype": "float32"}, {"name": "F_12_2/bias", "shape": [64], "dtype": "float32"}, {"name": "F_12_3/kernel", "shape": [3, 3, 192, 64], "dtype": "float32"}, {"name": "F_12_3/bias", "shape": [64], "dtype": "float32"}, {"name": "F_12_4/kernel", "shape": [3, 3, 256, 64], "dtype": "float32"}, {"name": "F_12_4/bias", "shape": [64], "dtype": "float32"}, {"name": "F_12_5/kernel", "shape": [3, 3, 320, 64], "dtype": "float32"}, {"name": "F_12_5/bias", "shape": [64], "dtype": "float32"}, {"name": "F_12_6/kernel", "shape": [3, 3, 384, 64], "dtype": "float32"}, {"name": "F_12_6/bias", "shape": [64], "dtype": "float32"}, {"name": "F_13_1/kernel", "shape": [3, 3, 64, 64], "dtype": "float32"}, {"name": "F_13_1/bias", "shape": [64], "dtype": "float32"}, {"name": "F_13_2/kernel", "shape": [3, 3, 128, 64], "dtype": "float32"}, {"name": "F_13_2/bias", "shape": [64], "dtype": "float32"}, {"name": "F_13_3/kernel", "shape": [3, 3, 192, 64], "dtype": "float32"}, {"name": "F_13_3/bias", "shape": [64], "dtype": "float32"}, {"name": "F_13_4/kernel", "shape": [3, 3, 256, 64], "dtype": "float32"}, {"name": "F_13_4/bias", "shape": [64], "dtype": "float32"}, {"name": "F_13_5/kernel", "shape": [3, 3, 320, 64], "dtype": "float32"}, {"name": "F_13_5/bias", "shape": [64], "dtype": "float32"}, {"name": "F_13_6/kernel", "shape": [3, 3, 384, 64], "dtype": "float32"}, {"name": "F_13_6/bias", "shape": [64], "dtype": "float32"}, {"name": "F_14_1/kernel", "shape": [3, 3, 64, 64], "dtype": "float32"}, {"name": "F_14_1/bias", "shape": [64], "dtype": "float32"}, {"name": "F_14_2/kernel", "shape": [3, 3, 128, 64], "dtype": "float32"}, {"name": "F_14_2/bias", "shape": [64], "dtype": "float32"}, {"name": "F_14_3/kernel", "shape": [3, 3, 192, 64], "dtype": "float32"}, {"name": "F_14_3/bias", "shape": [64], "dtype": "float32"}, {"name": "F_14_4/kernel", "shape": [3, 3, 256, 64], "dtype": "float32"}, {"name": "F_14_4/bias", "shape": [64], "dtype": "float32"}, {"name": "F_14_5/kernel", "shape": [3, 3, 320, 64], "dtype": "float32"}, {"name": "F_14_5/bias", "shape": [64], "dtype": "float32"}, {"name": "F_14_6/kernel", "shape": [3, 3, 384, 64], "dtype": "float32"}, {"name": "F_14_6/bias", "shape": [64], "dtype": "float32"}, {"name": "F_15_1/kernel", "shape": [3, 3, 64, 64], "dtype": "float32"}, {"name": "F_15_1/bias", "shape": [64], "dtype": "float32"}, {"name": "F_15_2/kernel", "shape": [3, 3, 128, 64], "dtype": "float32"}, {"name": "F_15_2/bias", "shape": [64], "dtype": "float32"}, {"name": "F_15_3/kernel", "shape": [3, 3, 192, 64], "dtype": "float32"}, {"name": "F_15_3/bias", "shape": [64], "dtype": "float32"}, {"name": "F_15_4/kernel", "shape": [3, 3, 256, 64], "dtype": "float32"}, {"name": "F_15_4/bias", "shape": [64], "dtype": "float32"}, {"name": "F_15_5/kernel", "shape": [3, 3, 320, 64], "dtype": "float32"}, {"name": "F_15_5/bias", "shape": [64], "dtype": "float32"}, {"name": "F_15_6/kernel", "shape": [3, 3, 384, 64], "dtype": "float32"}, {"name": "F_15_6/bias", "shape": [64], "dtype": "float32"}, {"name": "F_16_1/kernel", "shape": [3, 3, 64, 64], "dtype": "float32"}, {"name": "F_16_1/bias", "shape": [64], "dtype": "float32"}, {"name": "F_16_2/kernel", "shape": [3, 3, 128, 64], "dtype": "float32"}, {"name": "F_16_2/bias", "shape": [64], "dtype": "float32"}, {"name": "F_16_3/kernel", "shape": [3, 3, 192, 64], "dtype": "float32"}, {"name": "F_16_3/bias", "shape": [64], "dtype": "float32"}, {"name": "F_16_4/kernel", "shape": [3, 3, 256, 64], "dtype": "float32"}, {"name": "F_16_4/bias", "shape": [64], "dtype": "float32"}, {"name": "F_16_5/kernel", "shape": [3, 3, 320, 64], "dtype": "float32"}, {"name": "F_16_5/bias", "shape": [64], "dtype": "float32"}, {"name": "F_16_6/kernel", "shape": [3, 3, 384, 64], "dtype": "float32"}, {"name": "F_16_6/bias", "shape": [64], "dtype": "float32"}, {"name": "F_17_1/kernel", "shape": [3, 3, 64, 64], "dtype": "float32"}, {"name": "F_17_1/bias", "shape": [64], "dtype": "float32"}, {"name": "F_17_2/kernel", "shape": [3, 3, 128, 64], "dtype": "float32"}, {"name": "F_17_2/bias", "shape": [64], "dtype": "float32"}, {"name": "F_17_3/kernel", "shape": [3, 3, 192, 64], "dtype": "float32"}, {"name": "F_17_3/bias", "shape": [64], "dtype": "float32"}, {"name": "F_17_4/kernel", "shape": [3, 3, 256, 64], "dtype": "float32"}, {"name": "F_17_4/bias", "shape": [64], "dtype": "float32"}, {"name": "F_17_5/kernel", "shape": [3, 3, 320, 64], "dtype": "float32"}, {"name": "F_17_5/bias", "shape": [64], "dtype": "float32"}, {"name": "F_17_6/kernel", "shape": [3, 3, 384, 64], "dtype": "float32"}, {"name": "F_17_6/bias", "shape": [64], "dtype": "float32"}, {"name": "F_18_1/kernel", "shape": [3, 3, 64, 64], "dtype": "float32"}, {"name": "F_18_1/bias", "shape": [64], "dtype": "float32"}, {"name": "F_18_2/kernel", "shape": [3, 3, 128, 64], "dtype": "float32"}, {"name": "F_18_2/bias", "shape": [64], "dtype": "float32"}, {"name": "F_18_3/kernel", "shape": [3, 3, 192, 64], "dtype": "float32"}, {"name": "F_18_3/bias", "shape": [64], "dtype": "float32"}, {"name": "F_18_4/kernel", "shape": [3, 3, 256, 64], "dtype": "float32"}, {"name": "F_18_4/bias", "shape": [64], "dtype": "float32"}, {"name": "F_18_5/kernel", "shape": [3, 3, 320, 64], "dtype": "float32"}, {"name": "F_18_5/bias", "shape": [64], "dtype": "float32"}, {"name": "F_18_6/kernel", "shape": [3, 3, 384, 64], "dtype": "float32"}, {"name": "F_18_6/bias", "shape": [64], "dtype": "float32"}, {"name": "F_19_1/kernel", "shape": [3, 3, 64, 64], "dtype": "float32"}, {"name": "F_19_1/bias", "shape": [64], "dtype": "float32"}, {"name": "F_19_2/kernel", "shape": [3, 3, 128, 64], "dtype": "float32"}, {"name": "F_19_2/bias", "shape": [64], "dtype": "float32"}, {"name": "F_19_3/kernel", "shape": [3, 3, 192, 64], "dtype": "float32"}, {"name": "F_19_3/bias", "shape": [64], "dtype": "float32"}, {"name": "F_19_4/kernel", "shape": [3, 3, 256, 64], "dtype": "float32"}, {"name": "F_19_4/bias", "shape": [64], "dtype": "float32"}, {"name": "F_19_5/kernel", "shape": [3, 3, 320, 64], "dtype": "float32"}, {"name": "F_19_5/bias", "shape": [64], "dtype": "float32"}, {"name": "F_19_6/kernel", "shape": [3, 3, 384, 64], "dtype": "float32"}, {"name": "F_19_6/bias", "shape": [64], "dtype": "float32"}, {"name": "F_1_1/kernel", "shape": [3, 3, 64, 64], "dtype": "float32"}, {"name": "F_1_1/bias", "shape": [64], "dtype": "float32"}, {"name": "F_1_2/kernel", "shape": [3, 3, 128, 64], "dtype": "float32"}, {"name": "F_1_2/bias", "shape": [64], "dtype": "float32"}, {"name": "F_1_3/kernel", "shape": [3, 3, 192, 64], "dtype": "float32"}, {"name": "F_1_3/bias", "shape": [64], "dtype": "float32"}, {"name": "F_1_4/kernel", "shape": [3, 3, 256, 64], "dtype": "float32"}, {"name": "F_1_4/bias", "shape": [64], "dtype": "float32"}, {"name": "F_1_5/kernel", "shape": [3, 3, 320, 64], "dtype": "float32"}, {"name": "F_1_5/bias", "shape": [64], "dtype": "float32"}, {"name": "F_1_6/kernel", "shape": [3, 3, 384, 64], "dtype": "float32"}, {"name": "F_1_6/bias", "shape": [64], "dtype": "float32"}, {"name": "F_20_1/kernel", "shape": [3, 3, 64, 64], "dtype": "float32"}, {"name": "F_20_1/bias", "shape": [64], "dtype": "float32"}, {"name": "F_20_2/kernel", "shape": [3, 3, 128, 64], "dtype": "float32"}, {"name": "F_20_2/bias", "shape": [64], "dtype": "float32"}, {"name": "F_20_3/kernel", "shape": [3, 3, 192, 64], "dtype": "float32"}, {"name": "F_20_3/bias", "shape": [64], "dtype": "float32"}, {"name": "F_20_4/kernel", "shape": [3, 3, 256, 64], "dtype": "float32"}, {"name": "F_20_4/bias", "shape": [64], "dtype": "float32"}, {"name": "F_20_5/kernel", "shape": [3, 3, 320, 64], "dtype": "float32"}, {"name": "F_20_5/bias", "shape": [64], "dtype": "float32"}, {"name": "F_20_6/kernel", "shape": [3, 3, 384, 64], "dtype": "float32"}, {"name": "F_20_6/bias", "shape": [64], "dtype": "float32"}, {"name": "F_2_1/kernel", "shape": [3, 3, 64, 64], "dtype": "float32"}, {"name": "F_2_1/bias", "shape": [64], "dtype": "float32"}, {"name": "F_2_2/kernel", "shape": [3, 3, 128, 64], "dtype": "float32"}, {"name": "F_2_2/bias", "shape": [64], "dtype": "float32"}, {"name": "F_2_3/kernel", "shape": [3, 3, 192, 64], "dtype": "float32"}, {"name": "F_2_3/bias", "shape": [64], "dtype": "float32"}, {"name": "F_2_4/kernel", "shape": [3, 3, 256, 64], "dtype": "float32"}, {"name": "F_2_4/bias", "shape": [64], "dtype": "float32"}, {"name": "F_2_5/kernel", "shape": [3, 3, 320, 64], "dtype": "float32"}, {"name": "F_2_5/bias", "shape": [64], "dtype": "float32"}, {"name": "F_2_6/kernel", "shape": [3, 3, 384, 64], "dtype": "float32"}, {"name": "F_2_6/bias", "shape": [64], "dtype": "float32"}, {"name": "F_3_1/kernel", "shape": [3, 3, 64, 64], "dtype": "float32"}, {"name": "F_3_1/bias", "shape": [64], "dtype": "float32"}, {"name": "F_3_2/kernel", "shape": [3, 3, 128, 64], "dtype": "float32"}, {"name": "F_3_2/bias", "shape": [64], "dtype": "float32"}, {"name": "F_3_3/kernel", "shape": [3, 3, 192, 64], "dtype": "float32"}, {"name": "F_3_3/bias", "shape": [64], "dtype": "float32"}, {"name": "F_3_4/kernel", "shape": [3, 3, 256, 64], "dtype": "float32"}, {"name": "F_3_4/bias", "shape": [64], "dtype": "float32"}, {"name": "F_3_5/kernel", "shape": [3, 3, 320, 64], "dtype": "float32"}, {"name": "F_3_5/bias", "shape": [64], "dtype": "float32"}, {"name": "F_3_6/kernel", "shape": [3, 3, 384, 64], "dtype": "float32"}, {"name": "F_3_6/bias", "shape": [64], "dtype": "float32"}, {"name": "F_4_1/kernel", "shape": [3, 3, 64, 64], "dtype": "float32"}, {"name": "F_4_1/bias", "shape": [64], "dtype": "float32"}, {"name": "F_4_2/kernel", "shape": [3, 3, 128, 64], "dtype": "float32"}, {"name": "F_4_2/bias", "shape": [64], "dtype": "float32"}, {"name": "F_4_3/kernel", "shape": [3, 3, 192, 64], "dtype": "float32"}, {"name": "F_4_3/bias", "shape": [64], "dtype": "float32"}, {"name": "F_4_4/kernel", "shape": [3, 3, 256, 64], "dtype": "float32"}, {"name": "F_4_4/bias", "shape": [64], "dtype": "float32"}, {"name": "F_4_5/kernel", "shape": [3, 3, 320, 64], "dtype": "float32"}, {"name": "F_4_5/bias", "shape": [64], "dtype": "float32"}, {"name": "F_4_6/kernel", "shape": [3, 3, 384, 64], "dtype": "float32"}, {"name": "F_4_6/bias", "shape": [64], "dtype": "float32"}, {"name": "F_5_1/kernel", "shape": [3, 3, 64, 64], "dtype": "float32"}, {"name": "F_5_1/bias", "shape": [64], "dtype": "float32"}, {"name": "F_5_2/kernel", "shape": [3, 3, 128, 64], "dtype": "float32"}, {"name": "F_5_2/bias", "shape": [64], "dtype": "float32"}, {"name": "F_5_3/kernel", "shape": [3, 3, 192, 64], "dtype": "float32"}, {"name": "F_5_3/bias", "shape": [64], "dtype": "float32"}, {"name": "F_5_4/kernel", "shape": [3, 3, 256, 64], "dtype": "float32"}, {"name": "F_5_4/bias", "shape": [64], "dtype": "float32"}, {"name": "F_5_5/kernel", "shape": [3, 3, 320, 64], "dtype": "float32"}, {"name": "F_5_5/bias", "shape": [64], "dtype": "float32"}, {"name": "F_5_6/kernel", "shape": [3, 3, 384, 64], "dtype": "float32"}, {"name": "F_5_6/bias", "shape": [64], "dtype": "float32"}, {"name": "F_6_1/kernel", "shape": [3, 3, 64, 64], "dtype": "float32"}, {"name": "F_6_1/bias", "shape": [64], "dtype": "float32"}, {"name": "F_6_2/kernel", "shape": [3, 3, 128, 64], "dtype": "float32"}, {"name": "F_6_2/bias", "shape": [64], "dtype": "float32"}, {"name": "F_6_3/kernel", "shape": [3, 3, 192, 64], "dtype": "float32"}, {"name": "F_6_3/bias", "shape": [64], "dtype": "float32"}, {"name": "F_6_4/kernel", "shape": [3, 3, 256, 64], "dtype": "float32"}, {"name": "F_6_4/bias", "shape": [64], "dtype": "float32"}, {"name": "F_6_5/kernel", "shape": [3, 3, 320, 64], "dtype": "float32"}, {"name": "F_6_5/bias", "shape": [64], "dtype": "float32"}, {"name": "F_6_6/kernel", "shape": [3, 3, 384, 64], "dtype": "float32"}, {"name": "F_6_6/bias", "shape": [64], "dtype": "float32"}, {"name": "F_7_1/kernel", "shape": [3, 3, 64, 64], "dtype": "float32"}, {"name": "F_7_1/bias", "shape": [64], "dtype": "float32"}, {"name": "F_7_2/kernel", "shape": [3, 3, 128, 64], "dtype": "float32"}, {"name": "F_7_2/bias", "shape": [64], "dtype": "float32"}, {"name": "F_7_3/kernel", "shape": [3, 3, 192, 64], "dtype": "float32"}, {"name": "F_7_3/bias", "shape": [64], "dtype": "float32"}, {"name": "F_7_4/kernel", "shape": [3, 3, 256, 64], "dtype": "float32"}, {"name": "F_7_4/bias", "shape": [64], "dtype": "float32"}, {"name": "F_7_5/kernel", "shape": [3, 3, 320, 64], "dtype": "float32"}, {"name": "F_7_5/bias", "shape": [64], "dtype": "float32"}, {"name": "F_7_6/kernel", "shape": [3, 3, 384, 64], "dtype": "float32"}, {"name": "F_7_6/bias", "shape": [64], "dtype": "float32"}, {"name": "F_8_1/kernel", "shape": [3, 3, 64, 64], "dtype": "float32"}, {"name": "F_8_1/bias", "shape": [64], "dtype": "float32"}, {"name": "F_8_2/kernel", "shape": [3, 3, 128, 64], "dtype": "float32"}, {"name": "F_8_2/bias", "shape": [64], "dtype": "float32"}, {"name": "F_8_3/kernel", "shape": [3, 3, 192, 64], "dtype": "float32"}, {"name": "F_8_3/bias", "shape": [64], "dtype": "float32"}, {"name": "F_8_4/kernel", "shape": [3, 3, 256, 64], "dtype": "float32"}, {"name": "F_8_4/bias", "shape": [64], "dtype": "float32"}, {"name": "F_8_5/kernel", "shape": [3, 3, 320, 64], "dtype": "float32"}, {"name": "F_8_5/bias", "shape": [64], "dtype": "float32"}, {"name": "F_8_6/kernel", "shape": [3, 3, 384, 64], "dtype": "float32"}, {"name": "F_8_6/bias", "shape": [64], "dtype": "float32"}, {"name": "F_9_1/kernel", "shape": [3, 3, 64, 64], "dtype": "float32"}, {"name": "F_9_1/bias", "shape": [64], "dtype": "float32"}, {"name": "F_9_2/kernel", "shape": [3, 3, 128, 64], "dtype": "float32"}, {"name": "F_9_2/bias", "shape": [64], "dtype": "float32"}, {"name": "F_9_3/kernel", "shape": [3, 3, 192, 64], "dtype": "float32"}, {"name": "F_9_3/bias", "shape": [64], "dtype": "float32"}, {"name": "F_9_4/kernel", "shape": [3, 3, 256, 64], "dtype": "float32"}, {"name": "F_9_4/bias", "shape": [64], "dtype": "float32"}, {"name": "F_9_5/kernel", "shape": [3, 3, 320, 64], "dtype": "float32"}, {"name": "F_9_5/bias", "shape": [64], "dtype": "float32"}, {"name": "F_9_6/kernel", "shape": [3, 3, 384, 64], "dtype": "float32"}, {"name": "F_9_6/bias", "shape": [64], "dtype": "float32"}, {"name": "F_m1/kernel", "shape": [3, 3, 3, 64], "dtype": "float32"}, {"name": "F_m1/bias", "shape": [64], "dtype": "float32"}, {"name": "GFF_1/kernel", "shape": [1, 1, 1280, 64], "dtype": "float32"}, {"name": "GFF_1/bias", "shape": [64], "dtype": "float32"}, {"name": "GFF_2/kernel", "shape": [3, 3, 64, 64], "dtype": "float32"}, {"name": "GFF_2/bias", "shape": [64], "dtype": "float32"}, {"name": "LFF_1/kernel", "shape": [1, 1, 448, 64], "dtype": "float32"}, {"name": "LFF_1/bias", "shape": [64], "dtype": "float32"}, {"name": "LFF_10/kernel", "shape": [1, 1, 448, 64], "dtype": "float32"}, {"name": "LFF_10/bias", "shape": [64], "dtype": "float32"}, {"name": "LFF_11/kernel", "shape": [1, 1, 448, 64], "dtype": "float32"}, {"name": "LFF_11/bias", "shape": [64], "dtype": "float32"}, {"name": "LFF_12/kernel", "shape": [1, 1, 448, 64], "dtype": "float32"}, {"name": "LFF_12/bias", "shape": [64], "dtype": "float32"}, {"name": "LFF_13/kernel", "shape": [1, 1, 448, 64], "dtype": "float32"}, {"name": "LFF_13/bias", "shape": [64], "dtype": "float32"}, {"name": "LFF_14/kernel", "shape": [1, 1, 448, 64], "dtype": "float32"}, {"name": "LFF_14/bias", "shape": [64], "dtype": "float32"}, {"name": "LFF_15/kernel", "shape": [1, 1, 448, 64], "dtype": "float32"}, {"name": "LFF_15/bias", "shape": [64], "dtype": "float32"}, {"name": "LFF_16/kernel", "shape": [1, 1, 448, 64], "dtype": "float32"}, {"name": "LFF_16/bias", "shape": [64], "dtype": "float32"}, {"name": "LFF_17/kernel", "shape": [1, 1, 448, 64], "dtype": "float32"}, {"name": "LFF_17/bias", "shape": [64], "dtype": "float32"}, {"name": "LFF_18/kernel", "shape": [1, 1, 448, 64], "dtype": "float32"}, {"name": "LFF_18/bias", "shape": [64], "dtype": "float32"}, {"name": "LFF_19/kernel", "shape": [1, 1, 448, 64], "dtype": "float32"}, {"name": "LFF_19/bias", "shape": [64], "dtype": "float32"}, {"name": "LFF_2/kernel", "shape": [1, 1, 448, 64], "dtype": "float32"}, {"name": "LFF_2/bias", "shape": [64], "dtype": "float32"}, {"name": "LFF_20/kernel", "shape": [1, 1, 448, 64], "dtype": "float32"}, {"name": "LFF_20/bias", "shape": [64], "dtype": "float32"}, {"name": "LFF_3/kernel", "shape": [1, 1, 448, 64], "dtype": "float32"}, {"name": "LFF_3/bias", "shape": [64], "dtype": "float32"}, {"name": "LFF_4/kernel", "shape": [1, 1, 448, 64], "dtype": "float32"}, {"name": "LFF_4/bias", "shape": [64], "dtype": "float32"}, {"name": "LFF_5/kernel", "shape": [1, 1, 448, 64], "dtype": "float32"}, {"name": "LFF_5/bias", "shape": [64], "dtype": "float32"}, {"name": "LFF_6/kernel", "shape": [1, 1, 448, 64], "dtype": "float32"}, {"name": "LFF_6/bias", "shape": [64], "dtype": "float32"}, {"name": "LFF_7/kernel", "shape": [1, 1, 448, 64], "dtype": "float32"}, {"name": "LFF_7/bias", "shape": [64], "dtype": "float32"}, {"name": "LFF_8/kernel", "shape": [1, 1, 448, 64], "dtype": "float32"}, {"name": "LFF_8/bias", "shape": [64], "dtype": "float32"}, {"name": "LFF_9/kernel", "shape": [1, 1, 448, 64], "dtype": "float32"}, {"name": "LFF_9/bias", "shape": [64], "dtype": "float32"}, {"name": "SR/kernel", "shape": [3, 3, 12, 3], "dtype": "float32"}, {"name": "SR/bias", "shape": [3], "dtype": "float32"}, {"name": "UPN1/kernel", "shape": [5, 5, 64, 64], "dtype": "float32"}, {"name": "UPN1/bias", "shape": [64], "dtype": "float32"}, {"name": "UPN2/kernel", "shape": [3, 3, 64, 32], "dtype": "float32"}, {"name": "UPN2/bias", "shape": [32], "dtype": "float32"}, {"name": "UPN3/kernel", "shape": [3, 3, 32, 12], "dtype": "float32"}, {"name": "UPN3/bias", "shape": [12], "dtype": "float32"}]}]}